connect4_ppo_model.pth (torch, 318724 bytes, 7 tensors)

fc1.weight f4 [256, 42]
00000000: 19d3 563d 2338 513d 6209 75bd 4ab4 d8bd
00000010: cc8b 74bd f605 e53d d1b1 ebbc 7e63 99bd
00000020: 23af c53b d3db 2dbd 37f7 92bd dd93 1b3e
00000030: dcfb 4c3d a4f2 fabd e49c fdbd 5d4a 293e
00000040: ea48 b8bd cd01 fdbb c38c 48bd cdd1 85bd
00000050: d0f7 bfbd 73ac 893c 0f22 91bd 6687 c73d
00000060: 10ae f73b d0cb 6fbd 5a7c e1bc b5f9 c7bd
00000070: dc3c 023e 61ad 8dbc efbe 8abd 07bb b3bd
00000080: 17dd 203d 0fb9 e03b 1978 f7bd c5d3 cdbd
00000090: 1fdf b8bd f2be afbd 3b25 0bbe b90d 003d
000000a0: 70be b5bd ffa1 2a3e 1ef4 50bd bc6a e2bd
000000b0: 2e32 803d 1c2d 92bd 287d ffbc 81e1 e43d
000000c0: b679 c13a 7723 18be 3b99 f33d e673 143e
000000d0: 92b2 f6bd bcdc 24bd 3dae 983d 1c78 10be
000000e0: d378 9abd 4450 043e 0685 16bd 1dda ca3d
000000f0: b5c9 eebc 21fb 06bd fc61 933c d7a0 d03d
00000100: 51a3 f43d 1ce2 0b3e 5ef0 fd3d a1f0 053e
00000110: b367 fa3b ae31 2e3e 112c c6bd 5572 36bd
00000120: 771e 0d3e a7c4 00be b287 cc3d 9bad 353d
00000130: ddb7 223c 4ba4 d9bb aafd 5c3d 7f06 cbbc
00000140: 7853 503d 5b89 9a3d e588 183d 3891 04be
00000150: 028f 0cbd b599 d53d 474a 93bd 4a8c 0cbe
00000160: 7020 d23d 9329 36bb 82a7 883c 89fd 543c
00000170: 6285 be3d f823 763d b7d3 7b3c bd07 cfbd
00000180: 5a3a a7bd dbc2 67bd 5674 193d bddb 0f3e
00000190: 0e5f 1dbd d77c 183e e1e7 f8bd ddcf 1a3d
000001a0: ce3f 09bd 9b2d adbd 62f2 b33d 5763 e2bc
000001b0: 8b35 80bb f971 103e c7ee d03d 8b74 aebd
000001c0: f9fe ce3d 283a e9bd 2743 b83d 0f7b 683d
000001d0: b520 e43d 8f30 e6bd 206e 1cbe 197e ccbd
000001e0: 5280 10be e52b 21bd 2aeb 923a a0a6 323e
000001f0: 6c9e eb39 8db0 cc3c e3b1 12be 5cec 2c3c
00000200: b2b3 d13d e74f b6bd 4426 07be 5217 febc
00000210: 77e8 1c3d 4a9b 2f3e 8705 acbd 294a a4bd
00000220: 9c4c ff3d e4df 4b3d 255d 543c 4d9a f73d
00000230: 4a0c 5abc 1383 bd3c 043e 02bd c94c 65bb
00000240: 30de c83c 49b3 85bd f146 e1bc ab79 90bd
00000250: b7a2 3dbe 0df2 1a3c 33d9 e13d f9b2 eebd
00000260: b06b a4bd 3a7a f3bd 27b3 a5bd 3558 b63c
00000270: 9b86 bf3d a19c 873d 35c0 16be 34ca b73d
00000280: cf50 26be d6b9 0d3e 794a 923d 6f88 dbbc
00000290: 2487 b6bc 3c3c 57bd bba0 93bd 43d7 e93d
000002a0: b2f4 ab3d 6d78 c63c 1ba6 febd 1d21 7a3d
000002b0: eb26 173d 5407 d2bd cfb8 b53d 3209 ff3d
000002c0: b8bb bcbd 7379 183d 0129 ea3d 5f5a 253e
000002d0: 811f 08be 7342 71bd d4c3 7e3d 94f3 5f3d
000002e0: 584f 2ebd 69ec 1dbd ab1e d33d 8aba aa3c
000002f0: 81fc a73c eb62 cd3c 9aea 1e3d 00f5 8abd
00000300: dfc4 d0bd 76e9 b7ba 6e70 023e 3851 133e
00000310: 0793 053e 7c7e cd3d ef76 b33d 4804 2bbe
00000320: 30a2 36bd c3c1 3dbd 411c 1abc 1202 ce3d
00000330: 316b ca3c fb1d 33bd 367d d03d fe27 09be
00000340: 8669 5cbc 9c20 d83d d0dc 8a3d 5d9b 36bd
00000350: 972a 7cbd 4df9 febd 4583 fabc ec3b fd3d
00000360: 5119 263e b998 87bd fa67 15be 7f54 b23b
00000370: b2cd 61bd c598 c0bc 89d9 fe3c 72f4 873c
00000380: abed dcbc 57a7 e6ba 22f2 e53d 65b0 8d3d
00000390: 96ba a3bd dde4 503d a363 423c f3e6 a63d
000003a0: 23cd 80bd b274 73bc a861 c63d fd81 e83d
000003b0: 875e fabd acf1 92bc 6abf a13d 7850 473d
000003c0: 2535 283d 0fc3 b33d ab3f b53d 0516 04bd
000003d0: de06 1bbe 8148 093e 2f16 45bc 8961 0fbe
000003e0: 492d 713d 39c4 28be 817a b33d ea8e 44bd
000003f0: 8a2f b8bb 904d 8fbd afe6 cf3b e07b 603d
0.052447412 0.051078927 -0.0598234 -0.105812624 -0.059703633 0.111827776 -0.028771313 -0.0748968
0.006032841 -0.04244597 -0.07176059 0.15193124 0.05004488 -0.12253311 -0.1238344 0.16532274
-0.08998282 -0.007721162 -0.048962366 -0.06534157 -0.09373438 0.016805863 -0.07086574 0.09742622
0.0075585917 -0.05854398 -0.027525116 -0.09764425 0.12718529 -0.017294588 -0.06774699 -0.08775907
0.039273348 0.006857998 -0.12083454 -0.100501575 -0.09026932 -0.08581342 -0.13588421 0.031263087
-0.08874214 0.16663359 -0.05101406 -0.11055514 0.06259571 -0.0713751 -0.031187609 0.11175824
0.0014761004 -0.14857279 0.11894461 0.14497337 -0.12045778 -0.04024957 0.07455108 -0.14108318
-0.07542577 0.12921244 -0.036747955 0.09904883 -0.029148916 -0.03295434 0.017991059 0.10186928
0.11945213 0.13660473 0.12399362 0.13080074 0.0076417564 0.17011139 -0.09676374 -0.04454263
0.13781153 -0.12575017 0.09986819 0.044355016 0.009931532 -0.0066418997 0.05395285 -0.024783371
0.050860852 0.0754573 0.037239928 -0.12946022 -0.03431607 0.10429708 -0.07191902 -0.13725391
0.10260093 -0.0027795776 0.016681436 0.012999901 0.093027845 0.060092896 0.015370301 -0.10108898
-0.081654266 -0.056582313 0.037464462 0.14048667 -0.03842073 0.14891373 -0.121536024 0.03779589
-0.033508115 -0.08455964 0.08786465 -0.02763526 -0.003912633 0.14105977 0.10201793 -0.085183226
0.10107226 -0.113880455 0.08997183 0.056757983 0.11139051 -0.112397306 -0.15276384 -0.09984989
-0.1411145 -0.0393485 0.0011209 0.17446375 0.00044940726 0.02498653 -0.14325671 0.010554399
0.10239352 -0.08901959 -0.13198191 -0.03101698 0.038307633 0.17149082 -0.08399492 -0.080219574
0.12465784 0.049774066 0.0129616605 0.120899774 -0.013308594 0.02313379 -0.031797424 -0.0034988394
0.02452001 -0.065283366 -0.027499648 -0.07054456 -0.18519102 0.0094571235 0.110277556 -0.1165523
-0.08028352 -0.11888547 -0.08090811 0.022258857 0.09351846 0.066216715 -0.14721759 0.08974114
-0.16241764 0.13840422 0.07143111 -0.026798455 -0.022281237 -0.05254768 -0.07208391 0.11418011
0.08396281 0.024227345 -0.12434026 0.061066736 0.03690235 -0.10255304 0.0887314 0.12452926
-0.09215492 0.037225198 0.11433602 0.16147755 -0.13293268 -0.05890126 0.062198475 0.054675654
-0.042556137 -0.038555536 0.10308584 0.020840902 0.020506145 0.025071582 0.038797952 -0.06785011
-0.101938 -0.0014031369 0.12738201 0.14386451 0.13044368 0.100338906 0.08762919 -0.16700852
-0.044588268 -0.046327364 -0.00940615 0.10058989 0.024709316 -0.043729763 0.10180132 -0.13394162
-0.013452893 0.10553095 0.06780398 -0.04458176 -0.061564054 -0.12449894 -0.030580172 0.12364945
0.16220595 -0.066209264 -0.14590445 0.0054422016 -0.055127807 -0.023510346 0.031109588 0.016596053
-0.026968798 -0.0017597479 0.11227824 0.0691841 -0.07994573 0.05099951 0.011864576 0.08149519
-0.06289127 -0.014859365 0.09686595 0.11352918 -0.12225061 -0.017937504 0.078978375 0.048660725
0.041066308 0.08777439 0.08850034 -0.032247562 -0.15139338 0.13406564 -0.012029215 -0.1400205
0.058881078 -0.16481103 0.087636 -0.047987856 -0.0056209015 -0.06997216 0.0063446383 0.054805636

fc1.bias f4 [256]
00000000: d180 203e 059a 06be 6daa a33d 5290 b8bd
00000010: 3890 803d 7aab 023e 3882 0a3e f2fd 8e3d
00000020: a258 d93d 23f7 e63d 1ca9 bcbd 61d9 2ebe
00000030: 5071 17be 1ae6 1cbe 29e3 45bd 4737 d5bd
00000040: 56ae 403e ba5f b9bd e56e 163e 8683 92bb
00000050: 38a2 433e cb75 2d3e 87fd 7e3d 1aed 03bd
00000060: 7dfc 043e cc2e 90bd 867e 503e c542 293e
00000070: 8cb5 05be be5c fcbc c788 27be 05af a6bc
00000080: 46c2 503e 3f19 4d3d 1180 cabd c837 4b3e
00000090: 84d7 0e3e a59d c23d b6ad 1a3e 1987 d23d
000000a0: 8477 523e aade 1c3e 6bd1 5e3e bb8a 1cbe
000000b0: 01c0 c93d cb5d 5f3e ac50 2d3e 6701 abbd
000000c0: 8651 3a3e ed4e 823d e52c 8fbd 9f7d c5bd
000000d0: 9300 063d a678 323e baff 2e3e c3db 2cbd
000000e0: ade7 463e f0d9 f7bd 6f72 073e 7e17 0fbe
000000f0: 1ad8 23be dffc 2dbe ea8e 873d 32fb d7bd
00000100: cf48 08be 91b8 6abd 828e b2bd 2848 08be
00000110: 7bf8 11ba 8857 a03d 3789 e53d 2205 2fbe
00000120: b97f 163d 833e a4bd c24a 713d 6a26 d9bc
00000130: ce4d 0b3e bae4 e7bd 49cd 173e b930 193d
00000140: 57f4 27be 7400 03be 91dd 47bd bcc7 f63c
00000150: c59a ebbd 55eb 413e d364 e3bd 6227 083e
00000160: 791c f6bb 3762 fb3c 2345 c6bb db33 ea3c
00000170: 855a f4bd 5704 26be af8d 6ebd 5130 a2bd
00000180: f47d 393e 98a8 c7bd ac98 80bd ff96 213d
00000190: 0b70 16be 2b83 f1bd 3f54 06be d556 d7bd
000001a0: 4d4f 053e b5af 7a3d 0aaa c1bd 3798 aebd
000001b0: 523d a5bd cc27 3c3d d5f9 483e 9a0e 14be
000001c0: f330 98bc c272 adbd 857c 05be eb21 00be
000001d0: 04bd 18be 5a93 f2bd e93a f4bd d9a3 efbd
000001e0: 4b7f 07be 7dbb 22be 7513 29be 222a a13d
000001f0: e7a3 65bd 0bd1 043e 6f3f 123c f8a3 de3d
00000200: 6486 95bd f70b e23d 8754 053d ec2f 54be
00000210: ec0e 083e 494a 8dbd 15ed 513d fdad ddbd
00000220: a015 1bbe 65fa bb3d fc2d de3c c01f b9bd
00000230: b6fe 29bd 71f4 d33d a98d 603e 0158 a6bd
00000240: 8c07 403e 64f2 aabc d7cc 2fbd 21a8 d7bd
00000250: 5afe 3e3e d37a 22be 25c9 523d c97c 5b3e
00000260: 652b a8bd 6f05 0dbe 6ded 1abe 94d4 a93d
00000270: ba5f bcbd aeaf 26be e056 7a3c de1a 2bbc
00000280: c569 16be 79ab fdbd 79ad d4bd b474 08be
00000290: 1074 583e f601 06be 8744 1ebe b0e0 05be
000002a0: fe65 d8bd 8ee4 ef3c 91c5 b33c 8855 083e
000002b0: 077e cc3d 422a 1d3d 507b 23be 62a3 263e
000002c0: 98ad 1b3e 1b5e 133e fd46 be3d 679d a43d
000002d0: 1076 1b3d 4018 a93d e991 80bc 43cc 6d3c
000002e0: 3f0a 59bd 69c2 06be ab8a 283d f938 0a3e
000002f0: fd9b 1cbd 0087 323e 3ef5 38be fe05 2fbd
00000300: abf6 0c3e c0b1 633e 4790 1d3e f582 b83c
00000310: c4c9 e53d dc42 dcbd aea4 d03d d412 21be
00000320: 740b 93bd 1db0 fc3d 4b6e 173e 626b c73c
00000330: da5f dcbd f6a2 4fbd 399b ea3d 9337 20be
00000340: add5 3fbe fb05 ef3d 086e 04be 146c 963d
00000350: d8be 353d 81b6 5ebd 82e1 0dbd 5bcf c53d
00000360: db91 153e 6fdb 81bd 64e5 83bd ea0c fe3d
00000370: 3bc0 343e 8c9c 043e 9827 95bd 605b 15bd
00000380: 1d90 13be d3cc 92bd 6775 09be 41bf febd
00000390: 9f4a 0bbe 83c5 fd3d be55 403d 6655 f5bd
000003a0: 353c 4b3e c308 623d 0bc3 5b3e 4137 553e
000003b0: 94ef d1bd 9547 f7bd 5f48 27bd d7b6 17be
000003c0: 3bb3 64bd 766d ecbd a040 b7bd 6dbf 25be
000003d0: 73d6 0f3e 5818 f83d 8dea 343e b899 52bd
000003e0: b8ca 653d 41ef 5e3d 1fdd 963d 8096 333e
000003f0: fe69 ac3d fb1e e83d ae9f 563d 3253 aa3d
0.1567414 -0.13144691 0.079914905 -0.09011902 0.062775075 0.12760726 0.13526237 0.0698203
0.106126085 0.11277606 -0.092119426 -0.17075111 -0.14789319 -0.15322152 -0.04831234 -0.10410934
0.18816504 -0.090514615 0.1469074 -0.004471245 0.1910485 0.16939466 0.0622535 -0.03220854
0.12986942 -0.07040176 0.20360765 0.16529377 -0.13057536 -0.030805942 -0.1636077 -0.020347128
0.2038661 0.050072905 -0.09887708 0.19845498 0.139494 0.095027246 0.15105328 0.10279674
0.20553404 0.15319315 0.21759574 -0.15287296 0.09851075 0.21813123 0.16925305 -0.08349877
0.18195161 0.0636271 -0.06990985 -0.09643101 0.03271539 0.17428836 0.1708974 -0.04220177
0.19424315 -0.12102115 0.13227247 -0.13973805 -0.16000405 -0.16990994 0.066190556 -0.105459586
-0.13309024 -0.057304922 -0.087185875 -0.13308775 -0.00055683375 0.07829195 0.11207812 -0.17091802
0.0367429 -0.08019736 0.058909185 -0.026507575 0.13603899 -0.11322923 0.14824404 0.03739998
-0.16401802 -0.12793142 -0.048795287 0.030124538 -0.11504129 0.18937428 -0.11103215 0.13296273
-0.0075107184 0.03068648 -0.006050722 0.02858918 -0.11931328 -0.16212593 -0.05824059 -0.07919372
0.18114454 -0.097489536 -0.0627912 0.03945064 -0.14691179 -0.117925964 -0.13118075 -0.10514609
0.13018532 0.061202724 -0.094562605 -0.085251264 -0.080683365 0.04593639 0.19626553 -0.14458695
-0.018578028 -0.08469154 -0.13035782 -0.12512939 -0.14915854 -0.11844511 -0.11925299 -0.11701173
-0.13232152 -0.15891834 -0.16511329 0.07869364 -0.056064513 0.12970369 0.008926257 0.10871118
-0.073010236 0.11037438 0.032551315 -0.20721406 0.13286942 -0.068989344 0.05125149 -0.10824201
-0.15144968 0.09178618 0.027121536 -0.09039259 -0.041502677 0.10349358 0.21929039 -0.08122254
0.18752879 -0.020867534 -0.04291996 -0.10530115 0.18651715 -0.15867166 0.051461358 0.2143432
-0.08211402 -0.13771604 -0.15129633 0.08292499 -0.09197946 -0.16277954 0.015279502 -0.010443417
-0.14688785 -0.123862214 -0.1038465 -0.13325769 0.21138024 -0.13086686 -0.15455829 -0.13073993
-0.105663285 0.029283788 0.021944793 0.13313878 0.09984975 0.03837038 -0.15965009 0.16273263
0.1520294 0.14391367 0.09290884 0.080378346 0.03795439 0.082565784 -0.015694575 0.014514032
-0.052988287 -0.13160099 0.04114787 0.13498296 -0.0382347 0.17434311 -0.18062302 -0.042730324
0.13765971 0.22235775 0.15387069 0.022523383 0.11220124 -0.1075494 0.1018766 -0.15729839
-0.07179919 0.123382784 0.14788167 0.024343196 -0.1076047 -0.05069252 0.114553876 -0.156462
-0.18733855 0.116710626 -0.12932599 0.07344833 0.044371456 -0.054373268 -0.03463889 0.096586905
0.1460642 -0.06340682 -0.06440237 0.12404807 0.17651455 0.12950343 -0.072829425 -0.036464095
-0.14410444 -0.07167973 -0.13423692 -0.124388225 -0.13602684 0.12391188 0.04695677 -0.11979179
0.19847186 0.055184137 0.21461122 0.20821859 -0.10250774 -0.120742 -0.040840503 -0.14815842
-0.05583499 -0.115443155 -0.08947873 -0.16186304 0.1404665 0.12114018 0.17667599 -0.05141613
0.05610153 0.05442739 0.07366394 0.1753788 0.08418654 0.11334034 0.052398376 0.083166495

fc2.weight f4 [256, 256]
00000000: 78e4 83bd 9e13 953c a20c 43bb 50fd b43c
00000010: 28ce dcbc f784 153d 15d6 693c 8f7d 1ebd
00000020: 3a75 17bc f2f1 a1bb 026d 50bd 99a5 133d
00000030: 02bd 31bd 8db8 cf3c cfd9 7ebc 1228 d5bc
00000040: 7263 053d 908f e23c 7abd 663d 4cfc 703c
00000050: c31c 85bc 7da2 55b8 341e fa3c 5231 b03c
00000060: 3de2 40bd 713d 57bd 6a9f bf3c 58c7 b83d
00000070: 501f 153d 90dd c9bc f756 4b3a f84e 7e3d
00000080: 77f2 41bd 9e50 003d 4bab fe3c a398 c13c
00000090: 23fe 8f3b 8053 353d 9ffa ddbc 3be2 1d3d
000000a0: 973d 05bd ef0b dc3c 615d a33b 9b6c 8cbd
000000b0: c381 92bc 5901 9bbc 4392 353d 26c0 c83c
000000c0: a36b 1e3d 631c ce3b efd9 da3b 91dc 81bd
000000d0: cd1b c7bc 0d3c a03d 7097 b63d ec7f 5a3d
000000e0: 8a85 a13d 3e38 cd3c 7e96 0abd 407f 183d
000000f0: 8415 c5bc a91c 51bd 3126 42bd 702b 5abd
00000100: 350c 36bb 77ac 4fbc 1d85 5ebd 6506 3d3d
00000110: 63ba c0bb c9c1 89bb 5bf6 4dbd 3adb 033d
00000120: 991e 8fbd 43ec 753c 5955 69bd ca55 803d
00000130: bfe0 863d b76d 98bc 05c4 d2bc 286e e4bc
00000140: cf29 5e3c d390 c93c e04a 1e3c d8eb 303d
00000150: dd2a 19bc 61f2 d5bb 6162 703a 3440 5f3d
00000160: 114c e6bc 8cf0 bf3c 8111 2b3d db93 783d
00000170: cfbc 3ebd e62a 863c 4166 0ebc 7814 0cbd
00000180: 25ac 793c b14f c1bc 7207 49bd c32e 09bd
00000190: 369b f83b f439 93bd 6b1e 14bd 60dc f03c
000001a0: 1fa7 213d 99f7 883d 238c ca3b 09c8 633d
000001b0: b0bb 80bd 1f96 513d dd17 7e3d 8767 0f3c
000001c0: 3418 2ebc 3ff2 793c 448e 80bc 0009 2dbd
000001d0: 1e6a 123d b427 fd3c d2ea 6f3d d84e 95bd
000001e0: 88c3 1cbd f1ff f5bb 1028 eaba 736c df3c
000001f0: 740f 5c3d 89e9 623d 81a9 69bd 7ae4 b2bc
00000200: 3bc0 f5bc 3147 e0bc 1a4d bb3b 7f14 30bd
00000210: 70ba f43c 9c09 96bd bf23 703d 8b5b babc
00000220: a5ec 56bd 3c85 123c 7eaf 233d 509d f6bc
00000230: 820c c0bb 484d 22bd 1963 973d 6c94 7d3c
00000240: d8fd 993d 98aa c8bb 7ea5 103d b640 543d
00000250: 640c e43b 448d 8e3c ea76 24bc df0d 8d3c
00000260: 5c9a 94bc bb2c 2fbd 8651 12bd f390 03bd
00000270: 72c6 a03c 4f3e b1bb 7970 19bd ea86 113d
00000280: 977b b23b 3659 40bd 4ae3 25bd abb8 14bd
00000290: 4f27 e83c 30d4 b6bb c43a c6bc 34d7 92bd
000002a0: 4f8a 68bc e74c 72bd 0564 d4bc b364 a33d
000002b0: e926 8abc 0b65 343c 8c36 513c 040c 9bba
000002c0: 1df3 c33c 807e 293d fa3d 083d 3967 363d
000002d0: 3556 493d 1afd e9bc 3b1e 2c3d 6ba9 4ebc
000002e0: 9496 ecbc 5b73 293d b9e6 593d 70f7 c8bb
000002f0: 95b2 69bd a1b3 903d b5d0 3abd 9317 0e3d
00000300: 548e 8a3b f7c3 d6bc 17eb b9bc 2e31 40bc
00000310: 7b1c 6b3d 7e3c 493d cd57 4ebd 9222 463d
00000320: 4ec6 833d 2263 ec3c 978f fdbc 3063 003d
00000330: af10 133b 6981 8d3c 99ab 873d 313f 423c
00000340: 70da 56bd 4ec4 9e3c a601 443d 0306 7ebb
00000350: e956 58bc eba0 6bbd 9b98 3abd 43cb fbbb
00000360: 5b3d 463c 0021 f3bc c1a3 90bd e081 263c
00000370: e538 c5bc 986c f0bc 2b8f 62bd 5df3 2c3b
00000380: c852 3bbd 74aa aabc f87f 63bd c097 12bd
00000390: 180b 5b3d f04c d9bc 2cf5 143d 68e8 013c
000003a0: ec4b cebc e4de aa3a 235b 113d fa45 be3d
000003b0: cc00 bcbc a19e 8fbc a663 df3c 0f44 cbbb
000003c0: b525 2ebd 207e 343d 8285 d53b 5f27 253d
000003d0: bd31 95bc 0af7 6ebb 4f2a b9bc 81a0 57bd
000003e0: 0e78 753d a589 b33c 4440 123d 28e7 a5bc
000003f0: 9b45 12bc 56b7 a23d 77e5 713a 42f3 203d
-0.06440061 0.01819783 -0.0029762168 0.022093445 -0.026953772 0.03650376 0.014272233 -0.03869396
-0.009244258 -0.004942172 -0.050885208 0.036046598 -0.043393143 0.025356555 -0.015554859 -0.026020084
0.03256554 0.027656347 0.056333043 0.01470859 -0.016249066 -5.0934486e-05 0.03053198 0.021507893
-0.047090758 -0.05254883 0.023391444 0.09022397 0.036406815 -0.024641782 0.0007756794 0.06208703
-0.047350373 0.031326883 0.031087538 0.023632353 0.004394309 0.044269085 -0.027097045 0.03854583
-0.03252944 0.02686116 0.004985497 -0.06856652 -0.01788414 -0.018921541 0.04432894 0.024505686
0.03867687 0.006290005 0.0066788117 -0.06340898 -0.024305249 0.07823954 0.08915603 0.053344652
0.07886799 0.025051232 -0.033834927 0.03723073 -0.024058111 -0.051052723 -0.047399703 -0.05326408
-0.0027778272 -0.012675396 -0.054326165 0.046148676 -0.005881594 -0.004204009 -0.05028377 0.032191493
-0.06988258 0.015009942 -0.05696616 0.06266363 0.06585836 -0.018607004 -0.025728235 -0.027884558
0.013559773 0.02460519 0.009661406 0.043193668 -0.009348598 -0.006529138 0.0009169933 0.05450459
-0.028112443 0.023430131 0.04176474 0.06068788 -0.04656678 0.016377877 -0.008691371 -0.034199208
0.015238796 -0.02359757 -0.049079366 -0.03349186 0.007586862 -0.07188788 -0.03616182 0.029401958
0.03946602 0.066878505 0.0061812564 0.05561069 -0.062857985 0.051168557 0.062034477 0.00875271
-0.010625888 0.01525551 -0.015692838 -0.04224491 0.035745732 0.030902721 0.05857355 -0.07290429
-0.03827241 -0.0075073172 -0.0017864723 0.027273392 0.053725675 0.055398498 -0.057046417 -0.021837462
-0.02999889 -0.027377697 0.0057159783 -0.042988297 0.029874057 -0.073260516 0.05862784 -0.02274873
-0.052471776 0.008942898 0.039962284 -0.03010431 -0.005860866 -0.039624482 0.07391948 0.015477281
0.0751912 -0.006123852 0.035314076 0.051819526 0.006959485 0.017401345 -0.010038117 0.017218528
-0.01814001 -0.042767268 -0.035722278 -0.032120656 0.019625876 -0.005409039 -0.037460778 0.035529055
0.005446862 -0.04696008 -0.040499963 -0.036308926 0.028339056 -0.005579494 -0.024197944 -0.07169953
-0.014193132 -0.05915537 -0.0259266 0.07978191 -0.016864257 0.011010419 0.012769353 -0.0011829142
0.023919636 0.041380405 0.03326223 0.044532035 0.04915448 -0.028563071 0.042021018 -0.012613635
-0.028880395 0.041369777 0.05319855 -0.0061330125 -0.057055075 0.070655115 -0.045609195 0.03469045
0.0042283926 -0.02621649 -0.022695107 -0.011730475 0.057400208 0.049129955 -0.050376702 0.048372813
0.06434308 0.028855864 -0.030952258 0.031344593 0.0022440364 0.017273622 0.066245265 0.011855886
-0.052454412 0.019380715 0.047853135 -0.0038760907 -0.013204315 -0.05752651 -0.045555692 -0.007684143
0.012099589 -0.029678822 -0.070624836 0.010162801 -0.024074981 -0.029348657 -0.055312317 0.0026390173
-0.045733243 -0.020833232 -0.055541962 -0.03578925 0.053477377 -0.026525944 0.036366627 0.007928945
-0.025182687 0.0013036397 0.035487305 0.09290691 -0.022949599 -0.017531695 0.027269196 -0.0062031816
-0.04251643 0.044065595 0.0065161595 0.04032075 -0.018212194 -0.0036463165 -0.022603182 -0.052643303
0.059928946 0.02191622 0.03570582 -0.020251825 -0.008927728 0.07945125 0.00092276133 0.03929449

fc2.bias f4 [256]
00000000: c6ba ce3d a70a 61bd e44a 4f3d a229 b33d
00000010: b99e 55bd cf4b 613d 426d 483c 96f4 29bd
00000020: d465 e53c 476a 94bd a342 9ebc 2324 bc3d
00000030: 7c7a 2ebd 72b0 08bc 66f9 953d 088d 3e3d
00000040: 35d8 4e3d 1a77 f23d c04f 953c 017b f6bc
00000050: 3f69 b0bd b128 cd3c b409 8a3b dca1 653d
00000060: 6437 673c 11cc 063c 4dec 473c fe2a c23c
00000070: f31e b83d 91f6 1a3b 2ef6 973c 93f4 3e3d
00000080: 4c19 86bd 6051 873a 7735 cc3c df69 bebd
00000090: b81b 2dbc 4d85 a23c 1c22 c93c a536 73bd
000000a0: 40d7 e7bc 6310 3b3a 6488 453d a204 403d
000000b0: 3592 0cbd 384c d4bc b4d4 793d d595 1cbd
000000c0: cb76 063d cc69 bb3d a517 af3d a601 04bc
000000d0: 44e2 933c 379f 98bd 4566 063c 607f 773d
000000e0: 9208 0fbc 6431 c23d 8506 35bc 38f7 f43d
000000f0: 3e30 aa3d c40e e33b 039d 09bd 116c 8c3b
00000100: 070c 0a3d de6e 40bd aaed 6b3d a0fd f13d
00000110: d46d b1bc fa7a ec3d 374a 153d f5be b93c
00000120: a126 8a3d 728d e7bc 4b5a cf3c d22f f23c
00000130: 0b82 5f3c 3c42 403d 49f8 60bd 2172 603d
00000140: 4a09 ce3d 2027 b03c 3fcd 6ebd 9515 f23d
00000150: 6983 7c3d 7480 c93d cc98 08bd 1e82 7bbc
00000160: d38c febc 00dc 773d eb6b 48bd a627 0a3c
00000170: 9402 333d 538d 903d 978d 52bd c1d0 2a3c
00000180: 9301 12bd e2c0 2c3b dbd0 bd3d c92f b03d
00000190: 2762 a3bc 02d7 503d c9a7 5d3d eb5c 02bc
000001a0: 498d 823c 15e4 30bc 9128 3ebc 282f c43c
000001b0: cdca 113b 0d1a 153d 6167 95bc 9f2e ef3d
000001c0: 5c8b 273d 22f6 4f3d 705c 2d3d 0d91 d8bd
000001d0: 0586 98bc 9553 05bd 85f2 d13d 8dc2 c23c
000001e0: a90f 0b3d a423 fbbb 332a 7dbc dbec 9cbd
000001f0: 7b48 4bbd 3f47 b8bd f28a 4dbd 8293 63bd
00000200: 036e 903d d031 54bc c34a f03c a918 4bbc
00000210: 4742 d83d b1a4 9c3d 8913 10bd e1aa 783b
00000220: 1ed6 dfbc dbc4 483d 1109 cdbd f115 7d3d
00000230: 1c50 a83d 57d4 3e3b 3955 713b 6d1b a93d
00000240: 2b76 ef3d 6958 e8bc 568f 6f3d c838 893c
00000250: accb be3c 87c3 99bc 6ba0 193d 993d 213c
00000260: a511 a3bd cd4d 833d 15db 923d 1854 df3c
00000270: f906 e23a d4cf 72bb 2d63 fc3b e8ff fe3c
00000280: 206b f83c 78d4 89bb 5561 40bd afa9 9fbd
00000290: 58a7 953c fb50 7e3c 7ac1 e33d 753d ca3d
000002a0: 1999 833c dd9d 233d 7bf9 7f3d 7446 90bb
000002b0: 8a3f 683c 457d 22bc 80fe fabc b931 cb3d
000002c0: ca8c 68bb a198 9f3d 0bdd 88bc 1021 9f3d
000002d0: 934d ab3d a937 a6bc 6a60 f8bc e472 0abd
000002e0: f654 a63d 69a6 a83d f765 1b3d 6030 b63c
000002f0: 9782 c73c d4ad 3cba 2709 50bd 7031 0e3d
00000300: 3a8e 3d3d 763e 89bd fb2b 363c 648f 9d3d
00000310: 60ea a7bd 931b 38bd 07f5 6dbd dc17 ac3d
00000320: ae18 21bc c2a4 4c3c 27a6 a139 6a8d 693d
00000330: 6f60 bb3c 3f68 86bd 5a4b 273d 096d f8bc
00000340: 1e6e babb 02d6 d03c e928 6cbd 2ffd b6bd
00000350: f7e4 a83d 90ff c1bb 6953 8dbc b224 883c
00000360: acd3 31bd 3e42 013d c097 933d 7f26 323d
00000370: d6fa 3d3d f5fa 873d 7455 90bd abc9 a7bd
00000380: bf0b 8e3d 5e4f 99bd ed82 2cba 9a62 6d3b
00000390: 7222 cabc d059 3fbd c5c6 abbc fa73 0f3c
000003a0: 804c 213b 3aef 4dbb 48bc 463d 261a 7ebb
000003b0: 60d3 983d 32ce 72bd 6a92 0d3d e7b9 073d
000003c0: 3c86 3ebd 3757 6c3c 2003 b63c f845 93bc
000003d0: 8c00 80bc 162c 9b3c 59c5 9abd 9483 05bd
000003e0: c0ed a03c 8b48 5d3c c52d 713c 8643 823d
000003f0: ce29 b33d ac06 1b3d 78d5 e73c d35f f43d
0.10094218 -0.0549418 0.05060853 0.08748175 -0.052153323 0.055003937 0.01223308 -0.04149302
0.028002657 -0.07246833 -0.019318884 0.0918658 -0.04259728 -0.008342849 0.073229596 0.046521217
0.05049916 0.11839123 0.018226504 -0.03008795 -0.08613824 0.025043817 0.0042125825 0.056062564
0.014112327 0.008227364 0.012202335 0.02370214 0.08990278 0.00236455 0.018550005 0.046619963
-0.06547794 0.0010323934 0.024927838 -0.09297537 -0.010565691 0.019838953 0.024552397 -0.059378285
-0.028300881 0.00071359257 0.048225775 0.04687942 -0.03431912 -0.02591525 0.060993865 -0.03822883
0.032828134 0.091510385 0.08549432 -0.008057034 0.018052228 -0.07452243 0.008203094 0.06042421
-0.008730071 0.09482077 -0.011048918 0.11961216 0.08309983 0.0069292504 -0.033597004 0.0042853435
0.033702876 -0.04698073 0.0575997 0.11815953 -0.021658815 0.115468934 0.03644773 0.022674063
0.06745649 -0.028265689 0.02531161 0.029563818 0.0136418445 0.046938166 -0.054924283 0.05479634
0.100603655 0.021503031 -0.058301207 0.11820523 0.06164876 0.098389536 -0.033348843 -0.015350847
-0.03107301 0.060512543 -0.048931044 0.0084323045 0.04370363 0.070582055 -0.05140456 0.010425747
-0.035646033 0.0026360084 0.09268352 0.08602864 -0.019944264 0.050986297 0.05411509 -0.007956724
0.01593651 -0.0107965665 -0.0116063515 0.023948267 0.0022246123 0.036401797 -0.018237771 0.11678814
0.040904388 0.05077184 0.042324483 -0.10574541 -0.018618593 -0.032550413 0.10251335 0.02377441
0.03395048 -0.007664161 -0.015451956 -0.07662364 -0.04962967 -0.08997964 -0.050181337 -0.055560596
0.07052233 -0.012951329 0.029332524 -0.012396016 0.105595164 0.076486 -0.03517488 0.0037943649
-0.027323779 0.04901586 -0.10011495 0.061788503 0.08218405 0.0029118264 0.0036824478 0.08257184
0.116924606 -0.02836247 0.058486305 0.016750708 0.023290478 -0.018769993 0.037506502 0.009841346
-0.0796235 0.06411324 0.07170693 0.027261779 0.001724451 -0.0037050145 0.0077022524 0.031127885
0.030324519 -0.0042062365 -0.046967823 -0.077960365 0.018268272 0.015522237 0.11120887 0.09875003
0.016064214 0.039945472 0.062493782 -0.00440293 0.014175305 -0.009917562 -0.030638933 0.09921593
-0.0035484307 0.077927835 -0.016706964 0.07769978 0.083644055 -0.020290213 -0.030319411 -0.033800974
0.08121674 0.08234865 0.037939038 0.022239864 0.024354262 -0.0007197533 -0.05078998 0.034715116
0.046278216 -0.067013666 0.011118884 0.07693365 -0.08199 -0.04494817 -0.058095004 0.08402988
-0.009832544 0.012490453 0.00030832106 0.05701963 0.022873132 -0.06562852 0.040843345 -0.03032543
-0.0056893965 0.025492672 -0.057656202 -0.0893501 0.082467966 -0.005920358 -0.017251687 0.01661906
-0.043414757 0.031557314 0.072066784 0.043493744 0.046381794 0.06639663 -0.07047549 -0.08192762
0.06935834 -0.07485841 -0.0006580789 0.0036222101 -0.024674628 -0.04671651 -0.020968804 0.008755678
0.0024612248 -0.0031423108 0.048519403 -0.003877291 0.074621916 -0.059278674 0.03456346 0.033136275
-0.046514735 0.0144250905 0.022218287 -0.0179777 -0.01562526 0.01894192 -0.07557172 -0.032596186
0.019644618 0.013506065 0.014720385 0.06360535 0.08748208 0.03784816 0.028300032 0.119323395

policy_logits.weight f4 [7, 256]
00000000: 0331 ae3d 9072 02bc 447d 3dbc 00c7 77bb
00000010: 8b3c a43c a4e4 3e3c 042d 9f3d a85e 45bd
00000020: 5a00 3a3d 4af5 abbc 4ba5 6ebd 9c6b 093d
00000030: 5809 333d eb8c 33bd 3263 69bc 88cf 4b3c
00000040: fb7e 6fbc b482 7e3a d829 253c b9c1 c73c
00000050: 0098 b3bc 2788 573b 0030 d4bc 7cca 983d
00000060: 4531 13bd f036 99bc 4b0f 9ebc cc7e 643d
00000070: 5d9f a7bb 9ef3 06bd d7b3 433d 77b4 6ebd
00000080: a669 d3bc 520d 3abc 79d2 99bd f61c 7ebd
00000090: 91d0 0f3c aaab b33c c723 9b3b 944d 48bd
000000a0: 51c1 523d cdb9 c33b 6b6f b23d 3ccf 103d
000000b0: f743 793d 0e95 81bb b992 f03c b885 4dbd
000000c0: f252 b43c 640f 693c 7fdc 3c3d b82b 9bbc
000000d0: 797a 23bd c17d 843d 356e cebc ceed 56bc
000000e0: a527 06be 114d 0cbd f850 553d 0aaa 3b3d
000000f0: d93f a83c 6d1b e13c 95fc b7bb 95b8 7dbd
00000100: 7096 fcbc d3df 903c 8f2b 813c dc91 50bc
00000110: 21aa 9fbd c6fd 6b3d fbe5 323d 745b af3d
00000120: dc16 b33c c8fa 81bd 0ec1 38bd 66a8 043d
00000130: 48f7 aebd b1fc 09be 2a29 2e3d d9af 103d
00000140: b1c8 63bd b264 27bd 3270 abbc bfa2 4bbc
00000150: 14ab 83bd bba2 41bd 606b e7bc c9c7 07ba
00000160: 1aa2 77bd a975 203d a814 b93d 06fd e23c
00000170: ddf2 cfbc cc09 bdbc 377d 243d 25a6 253d
00000180: 8472 5dbc 6a00 50bd dd4a ca3c 533b 8e3d
00000190: 81ce 17be 57ff acbd b012 92bc 0f60 1abe
000001a0: 243e cebd 78a7 1a3d 0f15 bbbb 57fe 8fbd
000001b0: 100c 8cbc 6fe5 303b 8c36 2dbd 217a 823c
000001c0: 2588 68bc 9781 443d c0df ffbc 1a76 833d
000001d0: feff 253d 889d 473b 6610 963c 70ce b73c
000001e0: 4198 123d d46a 07bd 6ac0 8e3c a626 b8bc
000001f0: 7ff4 583d 0c8a 6ebd 9b6e 51bd 6280 7e3c
00000200: 5c1b babd 1ec9 aebc a52d 0ebd a2d7 fdbc
00000210: 7dba e03d b7cc 943d 390d b13b 9388 ff3c
00000220: d433 96bd beb1 523c 3f61 bf3c e3f0 c7bc
00000230: 64d7 5bbb e10f 763d e1cf 89bd ce1f c5bc
00000240: 6235 013e 7356 dbbc 5db8 c3bb 5701 7dbd
00000250: 6de1 29bc 5a96 8d3b fe1c 9ebd b7fd 7cbd
00000260: e332 653c 40b6 b63b 7d4c d03c 0ce4 2dbd
00000270: 7504 743a ba43 6dbd 090e a3bc 0002 4d3d
00000280: 8795 35bc 4a11 8bbd 2851 343d 0c1c 7c3d
00000290: bf32 06bd e369 4f3d 8715 a43d 7258 b83c
000002a0: 2405 d4bd 60d3 353d 1491 afbd abd7 bb3c
000002b0: eca9 2e3c 44cf 3cbd fb76 5a3c b9ad c8bc
000002c0: 06f8 b53c 84e4 1ebc 9b43 bb3c 19b0 6cbd
000002d0: 2dcf b4bc 7e91 e1bb 64aa f0ba 65b8 82bd
000002e0: 4dcd 0abd 01ca 80bd 71db 06bd ab50 0dbd
000002f0: 1fb5 a73c a905 d23c 064c 1e3d 82ad 9fbd
00000300: 5838 5c3d 0233 30bd 4e46 87bc 380f dfbd
00000310: 7366 05bd 9069 333c 8f5d 9fbc 3840 1e3d
00000320: 59b0 db3a 5f53 23bd 1a8d 123d 4c8a 143d
00000330: ba83 073d f091 1dbd 0f28 013d 9777 303d
00000340: 6952 e83b 41bd 6b3d def9 33bc ee11 58bc
00000350: c1ff c73d e875 d13c 9f9c 41bc 64bb b4bc
00000360: 0311 9ebd f8e6 91bd 448f 013c 44ef f13c
00000370: 2cd2 50bd 47fc d63c fcc7 883d 0353 7a3c
00000380: 577a fc3a 89f6 8ebd 24f8 143b 2210 683d
00000390: 61a2 c13c 484a cebc 9436 5dbd 0a49 21bc
000003a0: 0c4b bebc a651 4b3d e4b8 35bb 0724 03bd
000003b0: 892c 893d 43cf 893c f1f5 bcbc 2ab8 4cbd
000003c0: 43ac 403d 9bc0 70bd 0b7f 8a3d 51a6 0cbd
000003d0: 4bbf 3f3c aba3 8dbd fff3 15bd 12b9 5fbd
000003e0: 6509 463b bc14 1bbe d33b ebbc 92d0 d43c
000003f0: 9cbb cabc e3ac f03c af2a 62bd 16b7 8dbc
0.08505442 -0.007961884 -0.01156551 -0.0037807822 0.0200484 0.011651192 0.07772258 -0.048185974
0.04541049 -0.020990986 -0.058263104 0.03354989 0.043710083 -0.04383556 -0.014244841 0.012439616
-0.014617677 0.00097088073 0.010080777 0.024384366 -0.021923065 0.003288755 -0.025901794 0.07460496
-0.03593566 -0.018702954 -0.019294402 0.055784985 -0.005115433 -0.032947175 0.04777893 -0.058277573
-0.025807213 -0.011355715 -0.075108476 -0.062039338 0.008777753 0.021932442 0.0047344896 -0.04890211
0.051453892 0.005973077 0.087126575 0.035353884 0.060855832 -0.0039545363 0.029366838 -0.050176352
0.022012208 0.014224861 0.04610872 -0.018941745 -0.03991172 0.06469298 -0.025199035 -0.0131182205
-0.1310106 -0.034253184 0.05207917 0.04581646 0.020538257 0.027478898 -0.005614827 -0.06194361
-0.030833453 0.017684853 0.01576784 -0.012730088 -0.077961214 0.057615064 0.043676358 0.08562365
0.021861486 -0.06346661 -0.045105986 0.03238716 -0.08543259 -0.134753 0.042519726 0.03532395
-0.055611316 -0.040867515 -0.020927522 -0.012428938 -0.06429115 -0.047274332 -0.028249443 -0.00051796116
-0.060457326 0.03917471 0.09037143 0.027708542 -0.02538436 -0.02307596 0.040158477 0.04044165
-0.013516072 -0.050781645 0.0246939 0.06944909 -0.14824869 -0.0844714 -0.017831177 -0.15075706
-0.10070446 0.037757367 -0.0057092975 -0.07030933 -0.017095596 0.0026992222 -0.042288348 0.015927376
-0.014192616 0.04797515 -0.031234622 0.064190105 0.040527336 0.0030458886 0.018318366 0.022437304
0.035789732 -0.033060864 0.017425735 -0.022479367 0.052967545 -0.05823712 -0.051130872 0.015533539
-0.0908725 -0.021336135 -0.0347115 -0.03098661 0.1097307 0.07265609 0.0054031876 0.031193053
-0.07334104 0.01285976 0.0233618 -0.024406856 -0.003354513 0.060073737 -0.06729103 -0.024063017
0.1261802 -0.02677462 -0.0059729056 -0.061768856 -0.010368687 0.004320902 -0.077203736 -0.0617654
0.013989183 0.005575925 0.025427097 -0.04245381 0.00093085255 -0.057925917 -0.019904153 0.050050735
-0.011083013 -0.06790407 0.04402271 0.061550185 -0.03276324 0.05063809 0.080119185 0.022503112
-0.10352543 0.044391036 -0.08572593 0.022929987 0.01066063 -0.0460961 0.013334031 -0.0244969
0.022212993 -0.009698037 0.022859385 -0.057785127 -0.022071445 -0.006883799 -0.0018361327 -0.06382827
-0.033887196 -0.06288529 -0.03292412 -0.03450076 0.020472107 0.025637465 0.03864672 -0.07796766
0.05376467 -0.043017395 -0.016513016 -0.108915746 -0.032568406 0.010950461 -0.019453792 0.038635463
0.001676093 -0.03987443 0.035779096 0.036264703 0.03308461 -0.038469255 0.031532343 0.0430828
0.007089902 0.057553533 -0.010984866 -0.0131878685 0.09765578 0.025568917 -0.011817127 -0.022062011
-0.077180885 -0.07124132 0.007907692 0.029533036 -0.050981686 0.026243342 0.06678769 0.015278581
0.0019262534 -0.069806166 0.002273091 0.05665601 0.023636999 -0.025181904 -0.054007128 -0.009844074
-0.023229145 0.049638413 -0.0027728612 -0.03201678 0.066979475 0.016822463 -0.023066493 -0.04998032
0.04703928 -0.058777433 0.06762513 -0.0343383 0.011703323 -0.06915983 -0.036609646 -0.054619856
0.0030218002 -0.15144628 -0.02871505 0.02597836 -0.024747662 0.029379314 -0.055216487 -0.017299216

policy_logits.bias f4 [7]
00000000: 9de8 013d bb1a 2b3d 9932 aa3c 7ae2 0b3d
00000010: 79ec 55bd be4a 8fbc 8788 10bd
0.031715978 0.04177354 0.02077608 0.03415153 -0.05222747 -0.017491695 -0.035286453

value.weight f4 [1, 256]
00000000: 0261 1e3d 6c3d 6fbd d6fe 183d 6a06 8b3c
00000010: ad47 d5bc f525 a43b 0515 3a3d 21d4 71bc
00000020: 72d5 ce3c f73e 99bc 921e 8c3c 6a97 503d
00000030: 956c 69bd d9a9 c3bc b276 333d 3f11 4ebd
00000040: 11fe debb e3b4 853d 5105 5ebd 674a ec39
00000050: 9204 3538 27a4 f93c 3e0c 1c3c 40dc 713d
00000060: 386b 41bd 26f2 e73b ac9d a7bc a844 a53b
00000070: 6bb7 753d 6162 043d 356f 9f3b bb37 68bd
00000080: 5cd8 19bc 7f5d a93a dc51 413d f6eb 83bd
00000090: 26dc 833c b1a9 373c e687 c33a 26ac 5bbd
000000a0: 79a2 8bbc 6232 6c3c bfef 533c 834c 553c
000000b0: b80f ddbc 7fd4 1b3b b867 833c 33d1 463c
000000c0: b669 f1bc 5d79 833c 78ba 873c ffb1 d63c
000000d0: 528a 24bc 01a6 12bc 2067 a73b 7045 4b3d
000000e0: 21dd 4ebc 35d6 133d 02c1 55bd f616 923d
000000f0: fda7 7a3d 206b 6bbd 9c0a 2dbd 32fd 7c3b
00000100: 19bc dc3b b352 a7bc 8998 5d3d b832 953d
00000110: b092 40bc adb9 cc3c d1d0 99bc ea65 043b
00000120: 8dd3 ae3c 4282 ebbc 9829 393d 42b3 82bc
00000130: 7fd3 f03b e501 ea3b 4e16 b9bb 8b44 963c
00000140: e5f3 493d 8f48 a03b 74d5 2cbc f96c 283d
00000150: ea1e 1a3d 2d5a 753d 8427 1f3d 044f 003c
00000160: 240c a43c 1b36 363c 3a1e 1cbc 7e0a 0fbc
00000170: 9da1 b53b 4ac5 8d3c 17f6 953c 0feb dfbc
00000180: 61bf 563a 5ccc 473c 99a8 b53c 049c 003d
00000190: 659c 4abc 0c2c 4f3d 3f3f 423c 4d74 bcba
000001a0: 9c5e 42ba 30f3 153d abd2 e1ba 6806 343c
000001b0: 720a b2bc 6e06 b9bb 28e0 dcbb 66a9 7a3d
000001c0: da6f 653c e3e6 c13b c2d7 84bc e96f 4cbd
000001d0: 4867 4b3c 4814 0cbb 6929 913c 8732 61ba
000001e0: a3dd 1dbd 83f6 cdbb e9e5 61bc 5468 3dbd
000001f0: 11c6 62bd eb24 17bc 4056 14bd f5c7 f0bc
00000200: 57ba 3b3d 512a c9bb 706d d53b 193b 0e3d
00000210: 8dd3 653c 912b a63c 1d26 52bc 5776 443d
00000220: d463 b4bc dc04 0a3c bde2 5bbd 6194 c13c
00000230: 01e0 083d b07f 54bd d15a 45bd e70b 0c3d
00000240: f2a1 8a3d 9df6 b73b 8990 de3c 73c8 75bc
00000250: 1a9e 57bd 7528 403a aa85 183d 9037 e8bc
00000260: 347c 8dbd 658b f93c 9736 143d d172 093b
00000270: 011c 98bc 9365 adbc ca4b 7bbb 68f8 e43b
00000280: c4d6 2cbd fbf3 9dbb f29d 0fbd 9715 5cbd
00000290: 98a5 09bd 26f3 083b 5b0a b23c 9008 ff3c
000002a0: fd4a 913b 6cb5 2bbd 23fa d33c 94c3 2cbd
000002b0: 145e 6d3c 62fa 97bc 4df4 1ebc aa75 803d
000002c0: a42b 373d 4d3e ae3c de7a d4bb 3b0a 2f3d
000002d0: 1daf dc3c 835e 003b d94b eebc 9c1e 97bc
000002e0: 34d9 aa3c 1277 bfba 0843 1e3d a167 f23c
000002f0: ba1c 953c daa5 fabc 162f e2bb 6f42 debb
00000300: 5b58 013d 9ab7 42bd 6628 2f3d a989 7d3c
00000310: b199 9cbc 53eb 463d b112 fabc 2bbc fc3c
00000320: b74c bbbc e826 073d 0850 30bd 2b7f 3d3d
00000330: 56d5 47bd 43b6 15bc f6c2 d03c ee29 9bbb
00000340: f868 1f3d 0746 f2bc dfe9 1cbc 9667 96bd
00000350: 1771 113d 0d76 573c a387 80bd ea07 e03c
00000360: 8872 0e3b b6b3 3c3a 556c 0e3d f1b7 e73b
00000370: 1f4b 0c3d 4955 433c 5e68 aebb 907e babc
00000380: 8775 4e3d 8e3d 10bd 2df4 57bd d738 ba3b
00000390: 1893 24bd 01a1 00bd a91e 6bbd e528 c13c
000003a0: a487 38bd 02ba 27bd 2fb4 963c aef8 fdbb
000003b0: 55af 553d e627 c1bb e653 28bc 14e6 cfbc
000003c0: c780 78bd f95a c43c 3a83 243d 177f 0dbd
000003d0: 598d 943c e5e5 16bd 1239 2bbc 182d ae3c
000003e0: 0455 1abd 0760 dfbb 832c 1d3d 4f13 513d
000003f0: 4428 533d 209d 753c 2a3a ef3c 488d 243d
0.038666733 -0.058408186 0.037352405 0.016970832 -0.026035154 0.0050094076 0.045430202 -0.014760048
0.025248263 -0.018706782 0.01710442 0.05092565 -0.056988318 -0.0238847 0.04381437 -0.050309416
-0.0068051894 0.06528642 -0.05420429 0.00045068862 4.315802e-05 0.030473782 0.009524403 0.059047937
-0.047221392 0.007078427 -0.020460926 0.005043585 0.059989374 0.032320384 0.004865552 -0.056693774
-0.009389963 0.0012921541 0.047197208 -0.0644149 0.016096186 0.011209891 0.001491782 -0.05363097
-0.017045246 0.014416309 0.012935578 0.01301873 -0.026985034 0.002377778 0.016040668 0.012134838
-0.029469352 0.016049081 0.016568407 0.026207922 -0.010042744 -0.008950711 0.005108729 0.049626768
-0.012625963 0.036092956 -0.05218602 0.07133286 0.061195362 -0.05747521 -0.042246446 0.0038603065
0.00673629 -0.020425176 0.054100547 0.072850645 -0.011753723 0.02499088 -0.01877633 0.0020202347
0.02134111 -0.028748635 0.045205683 -0.015954617 0.007349431 0.007141339 -0.005648411 0.01834323
0.04930486 0.004891462 -0.010548938 0.04111955 0.03762714 0.05990045 0.038856044 0.007831339
0.02002532 0.011121298 -0.009528691 -0.008730529 0.0055429474 0.017305989 0.018305821 -0.027333764
0.000819197 0.012194719 0.02217512 0.031398788 -0.012366389 0.050579116 0.011855899 -0.0014377922
-0.00074146106 0.036608875 -0.0017228922 0.0109878555 -0.021733496 -0.0056465184 -0.0067405887 0.061196707
0.014003718 0.0059174164 -0.016216163 -0.049911413 0.012414761 -0.0021374393 0.017719941 -0.0008590598
-0.038541447 -0.00628549 -0.013787725 -0.046242073 -0.055364672 -0.0092251105 -0.036215067 -0.029392222
0.045832004 -0.0061390777 0.00651329 0.03472433 0.014027488 0.020284446 -0.01282647 0.04796442
-0.022020258 0.00842401 -0.05368303 0.023630323 0.03341675 -0.051879585 -0.048182312 0.03419104
0.0676917 0.0056141154 0.02716853 -0.015001404 -0.05264101 0.00073302473 0.037236847 -0.028346807
-0.069084555 0.030461976 0.036184873 0.0020972977 -0.01856804 -0.021166598 -0.0038344734 0.00698762
-0.042197004 -0.0048203445 -0.035062738 -0.053731527 -0.033605188 0.002089688 0.021733453 0.031132013
0.004433988 -0.041921064 0.02587611 -0.042178705 0.014487762 -0.018552009 -0.0097018005 0.06272443
0.044719353 0.021269942 -0.0064843735 0.042734366 0.02693897 0.0019587583 -0.029088901 -0.018447213
0.020855524 -0.0014607629 0.038638145 0.02959043 0.018202174 -0.030596662 -0.0069025857 -0.006782822
0.031578403 -0.047538377 0.042763136 0.015474715 -0.019116255 0.048564266 -0.03052649 0.030851444
-0.022863729 0.03299609 -0.043045074 0.046263855 -0.048787437 -0.009137693 0.02548359 -0.004735223
0.038918465 -0.029574407 -0.009577244 -0.07343976 0.03550824 0.013150704 -0.06275871 0.027347524
0.0021735746 0.000719841 0.034771282 0.007071488 0.03425133 0.011922189 -0.0053225 -0.022765428
0.05040505 -0.035214953 -0.0527231 0.0056830454 -0.040179342 -0.031403545 -0.057402287 0.02357907
-0.045051232 -0.040948875 0.018396465 -0.007750592 0.052169163 -0.005894649 -0.010273909 -0.025378264
-0.060669687 0.02396916 0.04016421 -0.03454503 0.018133806 -0.03684034 -0.010450618 0.021261737
-0.037678733 -0.0068168673 0.038372528 0.051043805 0.051552072 0.014991075 0.02920254 0.0401738
