connect4_dqn_model.pth (torch, 181942 bytes, 6 tensors)

fc1.weight f4 [256, 42]
000000 50 87 03 bf 39 c2 e3 ba aa be 20 3e 4f ca 2c 3f
       -0.51378345 -0.0017376608 0.15697733 0.674962
000010 b5 73 82 3e aa a1 96 3e 30 50 ac 3e 66 0a e9 3e
       0.25478902 0.29420215 0.33654928 0.45515746
000020 17 de 1b 3f bd 11 de 3e 02 90 af 3e 77 e4 95 3d
       0.6088576 0.43372908 0.34289557 0.07318967
000030 11 d7 a4 3e 8b b2 53 3f c1 e7 6c bd ba d2 1f bd
       0.32195333 0.8269431 -0.057838205 -0.039019324
000040 f8 f7 f3 3d 9a e4 eb 3f 2b e8 28 3f 4a 91 92 be
       0.11912531 1.8429139 0.6597926 -0.28626472
000050 f3 a5 ea 3e 62 9a 53 be 27 99 01 bf d6 95 44 bf
       0.45829734 -0.20664361 -0.50624317 -0.7679113
000060 2b 35 85 3f f8 29 f4 be 31 55 a0 bf 24 87 3c bf
       1.040685 -0.4768827 -1.2525998 -0.7364371
000070 35 04 56 3d e1 ae 38 3f bd 20 8f be ea 47 4a 3f
       0.052250106 0.72141844 -0.27954665 0.7901598
000080 2a 01 1c be 2b 33 63 3e 1c 36 d9 3c 75 cf 9e be
       -0.15234819 0.22187488 0.02651506 -0.31017652
000090 1a e2 c8 3d da 64 7d bf c6 d6 82 3e 71 35 49 3f
       0.098087505 -0.9898201 0.25554484 0.7859717
0000a0 0c 36 da 3e 3b 2b 93 be 4f 11 6e 3f fa c9 ad 3f
       0.4261936 -0.2874392 0.9299516 1.3577263
0000b0 73 ec 5c 3d 6f c0 0f 3f 28 48 ba be c9 ea 4a 3c
       0.053936433 0.56153005 -0.36383176 0.012385079
0000c0 40 6a 9c bf 0c cc 23 3f 7d 61 a4 bf 53 c2 45 be
       -1.2219925 0.63983226 -1.2842251 -0.1931241
0000d0 29 d2 7e be 34 3e 8f be 71 ed 1a bf 59 a1 30 3e
       -0.24884857 -0.27977145 -0.60518557 0.17249049
0000e0 a3 5a ff 3f c4 36 42 bf dc 4b c6 be c0 2c 28 be
       1.9949535 -0.75864816 -0.3872975 -0.16423321
0000f0 67 05 b7 3e 44 c0 82 be ee dd 82 be 0a d7 82 40
       0.3574631 -0.25537312 -0.25559944 4.08875
000100 d2 74 4e bf 37 0d 73 3e 03 67 96 3c 0b bb ed be
       -0.80647004 0.2373551 0.018359667 -0.46431765
000110 97 9a 21 3e 89 54 2e 3e dc 52 f5 3e 8c 04 88 be
       0.15781628 0.17024435 0.4791478 -0.2656597
000120 56 43 68 be b2 e0 1f 3e 1e be aa be 1c 1d 1c bf
       -0.22681937 0.15613058 -0.33348173 -0.6098192
000130 d1 0f 57 3e 76 94 88 bf a9 df 4e bf c5 48 07 3f
       0.21002127 -1.0670307 -0.8081003 0.5284541
000140 49 5c b7 be 58 ab 0b bf 4a ab 81 be 36 27 12 bf
       -0.35812595 -0.54558325 -0.25325996 -0.5709108
000150 3e a6 94 3e 17 ed 63 be 07 63 83 bf 6d 77 91 3f
       0.29033083 -0.22258411 -1.0264596 1.1364571
000160 d6 57 ff bd 59 60 01 3f 40 62 9d be ff 66 6f be
       -0.12467925 0.5053764 -0.3073902 -0.23379134
000170 51 3f 7d 3e ab 70 83 be b4 ac 9d 3f a2 12 98 bf
       0.24731185 -0.25671896 1.231833 -1.1880686
000180 5a ce 37 bf 87 38 04 be 06 dc 10 bf 8a cb c3 3f
       -0.7179924 -0.12912188 -0.5658573 1.529649
000190 f4 c6 2d bf aa f4 19 bf 25 d7 83 bf 54 87 4c bf
       -0.67881703 -0.6013895 -1.0300032 -0.79893994
0001a0 b7 63 72 3e 77 80 b0 be 4d c8 ce 3e e1 97 9c 3e
       0.2367085 -0.3447301 0.40387192 0.30584624
0001b0 0d 13 2f be c7 38 82 be fe 0f 9e 3f dc c9 aa bc
       -0.17097111 -0.25433943 1.234863 -0.020848207
0001c0 46 96 3c 3f 2a c2 81 3f c6 45 21 3f 02 19 d1 be
       0.736668 1.0137379 0.6299709 -0.40839392
0001d0 f9 c9 9b 3e ee 2f 16 3f 5a b0 f6 be 23 30 e5 3e
       0.3042753 0.58666885 -0.4818142 0.44763288
0001e0 66 d2 38 bd 1b 61 5d 3c 34 dc 35 be 69 4f 5d 3e
       -0.045122527 0.013511921 -0.17759782 0.21612324
0001f0 3b 5a 3d be b6 bb 00 bf 6a c2 c6 bf e7 b4 2c bd
       -0.18491451 -0.50286424 -1.552808 -0.04216471
000200 7c 24 c5 bf 32 04 70 bf 7d a1 30 bf 23 de 11 3e
       -1.5401759 -0.937564 -0.6899641 0.14244895
000210 b8 5f 22 3f f2 46 07 be 8e 30 9a bf cf be 22 3f
       0.63427305 -0.13210657 -1.2046068 0.635724
000220 f1 ea 29 bf c9 50 32 c0 fa 02 67 3e 09 45 1a 3f
       -0.6637412 -2.7861807 0.22559729 0.6026159
000230 f2 f8 84 be 81 ac b5 bf 95 aa 8f 3d 6c 5c 64 bf
       -0.2597118 -1.4193269 0.07014958 -0.89203525
000240 10 13 03 3f 09 b3 82 3f 60 ff 90 be a8 ea 21 3f
       0.5120096 1.0210887 -0.28319836 0.6324868
000250 64 28 d3 be 85 83 25 3f 96 ee c3 3e f3 7c 55 3f
       -0.41241753 0.6465381 0.38267964 0.8339378
000260 64 42 07 be d7 89 cc 3d 36 e5 73 3c 3b 7c 42 3c
       -0.1320892 0.09987228 0.014886191 0.011870439
000270 6e ea 03 be 72 f9 43 bf b9 6f aa be 2e 92 c6 be
       -0.12882397 -0.765525 -0.33288363 -0.387834
000280 56 0a 14 bf 34 f4 8b 3e 3f 9e df 3e 5b 1d 5c 3f
       -0.5782827 0.2733475 0.4367542 0.8598229
000290 78 a2 8a 3f 87 3e 84 be d9 8c 8f 3f b6 bf 67 3e
       1.0830832 -0.25828955 1.1214858 0.22631726
0002a0 50 cd b2 3f d2 08 69 bf cf 70 1d bc ed 65 a0 3d
       1.3968906 -0.91029084 -0.009609415 0.07831941
0002b0 27 2a 2d 3f ea 5d a0 3e 40 e0 81 be 06 dc 39 3e
       0.67642444 0.3132165 -0.25366402 0.18150339
0002c0 d2 bb b5 be 8f b3 89 be 13 27 fc 3e 20 e8 9d be
       -0.35494858 -0.26894805 0.4924856 -0.3084116
0002d0 7c 81 5c be ba d2 e4 be 07 29 86 be ad ee 52 3e
       -0.2153377 -0.44692022 -0.26203176 0.2059886
0002e0 92 0e 08 3f ce 6d d6 be 72 6c 48 3f 41 36 89 bf
       0.5314723 -0.4188065 0.78290474 -1.0719682
0002f0 d1 91 bb 3e 9a dd 49 bf 1e 25 da 3e 26 98 71 3e
       0.36634687 -0.7885376 0.42606443 0.23593196
000300 a9 bf bc 3e 1d a5 a7 3e 99 f2 dc 3c df ca 09 be
       0.36864975 0.3274316 0.026971148 -0.13456295
000310 16 44 b2 be b4 fa bb 3e e5 cb ff be 03 6e 18 c0
       -0.3481757 0.3671471 -0.49960247 -2.3817146
000320 7a 71 7a be 2e 28 e6 be 45 63 80 3e bb e5 c0 be
       -0.2445735 -0.4495253 0.25075737 -0.3767527
000330 71 58 49 3f 49 be 88 3e 4e b8 c7 3e 67 b1 02 3f
       0.78650576 0.26707676 0.390078 0.51051944
000340 ce 47 04 3f 63 fc 2a 3f b5 3a 02 c0 8b 84 2c bf
       0.51672065 0.6679136 -2.0348332 -0.67389745
000350 d2 a4 9b 3e d9 5f 04 3f 8f a6 9e bf 47 42 b5 3e
       0.30399185 0.5170875 -1.239458 0.35402128
000360 d1 9e be be 49 38 50 bd 78 2d 9c 3e 9d fa 29 40
       -0.37230542 -0.050834928 0.3050344 2.6559212
000370 4e 2c ec bf 2f 6b 0f be fc 58 fe 3e 51 60 8d 3f
       -1.8451021 -0.14005731 0.49677265 1.1045018
000380 76 ed 17 3f 7e ab 37 bf 3a 23 ef 3e 69 8b d1 3e
       0.5934671 -0.7174605 0.46706563 0.40926674
000390 d9 5c 32 be f3 b8 e4 be 0a a4 f5 bd 94 f1 09 be
       -0.17418231 -0.44672355 -0.119941786 -0.13471061
0003a0 68 58 d7 be 47 9e 48 3f 60 fd 0e bf 24 59 b3 be
       -0.42059636 0.7836651 -0.5585537 -0.35028946
0003b0 5b a0 5b bf 2e 20 36 3f 66 0f fd bc 3a db c4 3e
       -0.8579156 0.7114285 -0.030891132 0.38448507
0003c0 83 ae bd 3e 93 bc 01 bf a8 3e 87 bf 49 13 c4 be
       0.37047204 -0.50678366 -1.0565996 -0.38295963
0003d0 77 82 2b bf f9 9e 01 3e 1f d9 9c 3e a0 64 21 3f
       -0.6699595 0.126583 0.306344 0.63044167
0003e0 fb f8 e0 be 0e 65 72 3e 55 d1 22 3e 2c 3f ae 3e
       -0.43939957 0.23671362 0.15900166 0.3403257
0003f0 9b 8e 03 c0 37 08 0c 3f 7e 11 b3 3f 4e d9 47 3e
       -2.055579 0.54700035 1.3989713 0.19516489

fc1.bias f4 [256]
000000 31 08 d9 3f 07 12 2d bd 2a 6b c1 bd 42 8c 05 3e
       1.6955625 -0.04225352 -0.09444268 0.13041785
000010 8a f3 5e bc f7 e7 06 3f f5 22 3d be 3e 19 0e 3e
       -0.013607869 0.526977 -0.18470366 0.13876817
000020 f2 b3 e5 bb 29 d4 00 3f b0 0d 93 be 47 1c de 3d
       -0.0070099765 0.5032373 -0.2872138 0.10845237
000030 4d 15 12 3e 82 af 4d bd 18 e8 77 3e 13 b2 e0 3f
       0.14265938 -0.050216205 0.2420963 1.7554344
000040 92 27 64 3d 12 3f 8b be 4f c5 92 be 0f ff d2 3d
       0.0557018 -0.27196556 -0.2866616 0.10302555
000050 2a 7f 89 3d 9e fd cd 3e dd cd 97 40 58 bc 92 be
       0.06713708 0.40232557 4.74388 -0.2865932
000060 d8 49 92 3d f7 4f a8 c0 2e 51 8e 40 39 f7 6b be
       0.07142991 -5.2597613 4.4474096 -0.23043527
000070 27 0d 0d be f2 a0 82 3b 57 97 16 be 46 19 99 3f
       -0.13774548 0.0039864713 -0.14706169 1.1960838
000080 1e d6 05 3e 75 8c 9a 3d 64 97 e7 3e ce 1f 99 40
       0.1306996 0.07546321 0.4523269 4.7851324
000090 07 5f 6e 3e 2d 94 85 3d bf 6e dd bc f2 c6 33 bd
       0.23278438 0.06522403 -0.027030347 -0.0438909
0000a0 fe 54 c2 bd 6d 84 8e bc 6e 76 7f 3f 51 1c 12 bd
       -0.09488867 -0.01739713 0.99790084 -0.035671536
0000b0 19 17 8d 40 5d b9 e2 3d e7 07 4f 3e 72 9b 37 3f
       4.4090695 0.110705115 0.20217858 0.71721566
0000c0 c6 aa 1d be 8e 41 fb bd c8 03 01 bf 3c c7 0b 3e
       -0.15397176 -0.12268363 -0.50396395 0.1365022
0000d0 fe c8 65 bc cc 28 e8 3d 6f 5b 8f 40 84 ed e1 3e
       -0.014024971 0.113359064 4.4799113 0.44126523
0000e0 44 c8 53 c0 b8 a7 2d 3d 90 f6 26 3f ad 4e 8c 3e
       -3.3090982 0.042396277 0.65219975 0.27403775
0000f0 d4 1a d2 bd ad 0d c7 3d f4 1b 83 be c4 85 12 be
       -0.10259023 0.09719405 -0.25607264 -0.1430884
000100 36 d7 57 3d e3 94 15 bf 6e 42 fb 3e 76 0b 26 3e
       0.052695476 -0.5843031 0.4907412 0.1621531
000110 8f 19 3d be 65 6d 80 be 5f 7b bb bd 7e 0e 9c be
       -0.18466781 -0.2508346 -0.091543905 -0.30479807
000120 3c 2d 82 3f e7 67 4a bc 70 7a fb 3e 52 4f df be
       1.0170054 -0.012353874 0.4911685 -0.43615204
000130 c3 7c a5 3e 50 d3 5c 3e 04 97 20 3c e7 aa 97 40
       0.32321748 0.21564984 0.00980163 4.739612
000140 a8 fe 58 be 93 5c d1 3c c1 0c bc 3c cb 1b 1d be
       -0.21190894 0.025556838 0.0229553 -0.15342633
000150 10 6d ac 3e 87 84 ea 3e 4a cb 8d bc 72 6a 4d 40
       0.33676958 0.45804235 -0.01730885 3.209622
000160 17 3f 03 be 92 52 eb 3d 3f d5 f8 bb a0 18 aa bd
       -0.12817036 0.114903584 -0.0075937803 -0.08305478
000170 84 7d 39 be 51 ce 0f 3d d8 63 95 c0 6a 69 96 3d
       -0.18114287 0.035108868 -4.668438 0.07344325
000180 06 f5 0a 3c 4f b9 af bd 30 b4 a5 bd 67 50 45 be
       0.00848127 -0.08580267 -0.08091009 -0.19268952
000190 00 d3 5a 3e 70 f8 cc 3d 94 09 4a 3e db 2d b3 bd
       0.21369553 0.10008323 0.19730216 -0.087489806
0001a0 a7 24 23 bd ae 46 74 bd 12 b7 0f 3f 3e cf e0 bd
       -0.039829876 -0.059637718 0.5613872 -0.10977028
0001b0 8b 2b e0 3e d0 ce 4d bc f1 6e bf bd aa 8d 91 3f
       0.4378322 -0.012561515 -0.09347332 1.1371357
0001c0 46 5a e1 3c c9 5e e2 3d ef 09 5f 3e e7 35 b2 3e
       0.027508866 0.11053235 0.21781133 0.3480675
0001d0 8d c4 3e bc db b7 26 be 57 ae 11 3c d5 d5 69 be
       -0.011643541 -0.16281073 0.0088916635 -0.22835477
0001e0 d3 14 f8 3f f3 81 08 be 99 f5 0e 3d 7b fa ac be
       1.9381355 -0.13330822 0.03490219 -0.3378485
0001f0 60 30 62 3e 75 5b d2 3d 76 de ac 3e 5a 1d b0 3e
       0.22088766 0.1027135 0.33763474 0.34397393
000200 6b bd d5 3d 2e 4c ec bc fb 3a f6 bd 3d ab bb bd
       0.10436519 -0.028844919 -0.120229684 -0.091635205
000210 e3 12 a4 bd 05 46 f1 3e 96 af d2 3e 44 a2 5d 3e
       -0.08011415 0.47123733 0.41149586 0.2164393
000220 c8 4f e8 3e 8b 48 5c 3e ee 52 69 bd 4c 3e 7e be
       0.45373368 0.21512048 -0.056963854 -0.24828452
000230 cc 66 e2 be c2 81 b5 3e 26 ee 6e ba 86 66 d3 be
       -0.44219053 0.3545056 -0.00091144664 -0.41289157
000240 58 d9 1b 3d e5 1b 8d be 98 5b 82 be a7 53 03 3c
       0.038049072 -0.27560344 -0.25460505 0.00801555
000250 2c 38 a4 be bb d9 df 3e 55 67 57 3e 29 3b f3 bd
       -0.32074106 0.43720803 0.21035512 -0.11876518
000260 e1 aa 96 be 23 42 8d 3f aa d6 ff bb f1 01 5e bc
       -0.29427245 1.1035808 -0.0078075724 -0.013550268
000270 45 59 07 bf 5f e2 6f bf 10 59 5e 3c 0f b4 8c 3e
       -0.5287059 -0.9370479 0.013571039 0.27481124
000280 5f 78 67 be ab 0c be 3e 3e 94 9d be bb d0 06 c0
       -0.22604512 0.3711904 -0.30777162 -2.10649
000290 6e 0a 95 bd 56 0a 4e 3e f0 12 42 be b6 51 48 be
       -0.0727738 0.2012113 -0.18952537 -0.1956242
0002a0 7f 92 f3 3f 0c 88 c9 3d 2b c5 92 be cc 31 9b 3f
       1.9029082 0.09840402 -0.28666052 1.2124572
0002b0 61 7a 03 3f d1 21 6f be 77 90 27 be 8f 3b aa 3e
       0.5135861 -0.23352744 -0.16363703 0.33248565
0002c0 2b c8 8b 3c 29 42 cf 3d 42 59 b1 3b 87 92 68 3f
       0.017063221 0.10120041 0.0054122517 0.90848583
0002d0 98 24 3c 3c e5 2a 08 40 28 37 9a 40 03 3d 02 3f
       0.011483334 2.127618 4.819233 0.50874346
0002e0 b5 1d b4 3f 99 5a 05 3e 88 fd d5 3e b9 bf 1d 3b
       1.4071566 0.13022842 0.41794991 0.0024070574
0002f0 0c c6 ed 3d ab fc 19 be 90 01 10 be 63 92 38 3f
       0.1161004 -0.15037791 -0.14063096 0.7209837
000300 ce 81 18 40 3b 4d 1d bd 69 16 f0 bd 0e 80 09 3f
       2.3829226 -0.03840373 -0.117230244 0.5371102
000310 55 21 10 bf 45 ea 49 3c ea bc d4 3e 23 a8 a6 3e
       -0.5630086 0.012323921 0.4155038 0.32550153
000320 99 42 36 bd ce be c4 bd 9b 29 08 bd 95 03 9c be
       -0.044497106 -0.096067056 -0.033242803 -0.30471483
000330 89 e0 18 bd b0 b2 6f 3f 89 f2 b3 3d ed 6e 46 bd
       -0.03732351 0.9363203 0.08786494 -0.04844563
000340 4d 0f 9f c0 f3 65 04 40 78 31 1c be 4d c6 07 bd
       -4.970618 2.0687225 -0.15253246 -0.0331481
000350 6d 01 6c be 9a 9d 59 be a2 91 fd 3e 32 0d 2b be
       -0.23047419 -0.21251526 0.49525172 -0.16704252
000360 ba d6 b3 bd b1 26 0b 3f b0 b3 92 3e ce 25 7f be
       -0.0878119 0.54355913 0.28652716 -0.24916765
000370 7e b9 d5 3f 02 81 44 3e 44 df e2 3d 90 a6 16 3e
       1.6697233 0.19189838 0.11077741 0.14711976
000380 eb 11 17 bd 7e bd 27 be 64 c8 bd 3d d0 82 01 3e
       -0.036882322 -0.1638088 0.09266737 0.12647557
000390 87 e6 f3 3d ea e4 22 be 29 3a c1 bf e4 5b c7 3e
       0.11909204 -0.15907636 -1.5095874 0.38937294
0003a0 0f be c1 bd 6b 1f 23 3f 54 d6 34 bd 8b ba c6 3c
       -0.09460079 0.63719815 -0.04414971 0.024258872
0003b0 b6 da 19 bd 57 2b 9a 3d 92 a0 fc bc 6b 41 28 be
       -0.037562095 0.07527798 -0.030838285 -0.16431205
0003c0 ba 6a a7 be 15 12 5e 3e c5 f1 b3 3d 24 38 64 3e
       -0.32698613 0.21686585 0.08786348 0.22287041
0003d0 11 6a a9 3e 33 32 83 3e e0 52 f1 3d 28 80 b8 3e
       0.33088735 0.25624236 0.11783385 0.36035275
0003e0 a5 73 0a be 3d 08 f5 3f 26 91 0c be 21 09 80 3c
       -0.13520677 1.9143139 -0.13727245 0.015629353
0003f0 76 f9 a5 bb 8c 15 19 be 47 51 06 3f 82 cf 40 be
       -0.0050651385 -0.14949626 0.5246777 -0.18829158

fc2.weight f4 [128, 256]
000000 6a 15 88 bd 65 47 3f 3f bb e0 e4 3e 4c 7e 82 3e
       -0.066447094 0.74718314 0.44702706 0.25486982
000010 c5 c2 07 bf 88 85 d4 3d e8 21 7b be 0b 37 5c be
       -0.5303157 0.103770316 -0.24524653 -0.21505372
000020 91 02 d4 3c cb ca 2e bf 96 76 a7 bc 88 cb f6 3e
       0.02588013 -0.6827819 -0.020442288 0.48202157
000030 85 9d 6e 3f eb b5 bf be c6 d4 d1 bc 25 aa ad bf
       0.93209106 -0.3744348 -0.025614154 -1.3567549
000040 56 ec 61 bf ee d7 bc be 05 3e 8e bf 84 fb 41 3e
       -0.88251245 -0.3688349 -1.1112677 0.18943602
000050 2e 54 ba 3e b7 79 82 bf 41 1a c9 bf b3 24 13 3f
       0.3639235 -1.0193394 -1.5711137 0.57477874
000060 95 7d a9 be 99 15 8e 40 77 33 e9 bf 6a d3 91 be
       -0.33103624 4.4401364 -1.8218831 -0.2848161
000070 dd e6 14 bf d6 f5 49 be c5 22 d2 be ea 9f 92 3e
       -0.5816477 -0.19722685 -0.41042152 0.2863763
000080 42 2c 2c 3f 77 d5 9b 3f 8f b4 b1 bc e7 12 b4 bf
       0.6725503 1.2174519 -0.021692542 -1.4068269
000090 53 45 bb bc 07 03 a8 3f c4 f1 0c 3d ba 39 52 bf
       -0.022860205 1.3125924 0.034410253 -0.82119334
0000a0 9d 72 1d 3f a8 7d d8 be 03 fe 49 bf 04 c9 dd be
       0.6150301 -0.42283368 -0.78903216 -0.43317425
0000b0 9e 98 96 bf ae 35 5c bf 86 6c 54 bd 19 a0 59 3f
       -1.1765325 -0.8601941 -0.05186131 0.85009915
0000c0 48 03 78 3b 2a c3 d5 3e ba 33 43 3e 08 9b b5 be
       0.0037843753 0.4175046 0.19062701 -0.35469842
0000d0 cb 34 1b 3e 7b c7 86 bd f5 d4 7f bf 05 26 80 3e
       0.15156858 -0.06581017 -0.9993432 0.25029007
0000e0 89 80 e7 be b6 d4 fa bc b8 9d 57 3f dc b3 ef be
       -0.45215252 -0.030619007 0.84225035 -0.4681691
0000f0 fb 1e 8b 3f ed bf 44 bf 43 bf 26 3e 6e b4 72 3f
       1.086883 -0.76855356 0.16283898 0.94806564
000100 a4 fa cb bd dd f7 cf be d4 44 69 3c 47 b5 09 bf
       -0.09959915 -0.40618792 0.014237601 -0.5379223
000110 79 1f 3a be 13 5a a9 bd 25 53 05 bd d4 bd 50 be
       -0.18176068 -0.082691334 -0.032549996 -0.20384914
000120 9b 97 e8 3c 57 92 c6 bf 7d c7 11 be dd 85 62 3e
       0.028392604 -1.5513409 -0.14236255 0.22121377
000130 ae d7 08 be 65 df 05 3d ec 3a 48 3c 1c 75 b4 bf
       -0.13363525 0.03268375 0.012221079 -1.4098239
000140 bd a6 08 bf ce 01 a0 3e 7b 5b 41 bf c5 7d 3b bf
       -0.5337942 0.31251377 -0.75530213 -0.73238784
000150 61 9a bb 3e 7e 14 28 3e b2 68 81 be 8f eb 42 bf
       0.3664122 0.16414067 -0.2527519 -0.76140684
000160 6d fd ea 3e 6d ad 69 be 68 fb 8d 3f c1 e9 9a 3f
       0.45896474 -0.22820063 1.1092348 1.2102586
000170 ae 9c 86 3c 57 9e 8a be b5 70 05 3e db 82 4c 3e
       0.016432133 -0.2707393 0.13031276 0.19971792
000180 d7 34 16 bf aa 1f 1a 3f 68 de ea be e8 61 66 3c
       -0.5867438 0.60204566 -0.45872808 0.014061429
000190 8b a6 1f 3f 49 67 09 3f 75 1e c4 bd b1 f7 a6 3e
       0.623635 0.53673226 -0.09576122 0.3261085
0001a0 63 cc 33 3f 6e a9 73 3f 5b c2 b5 bd 95 ca 3c 3f
       0.70233744 0.95180404 -0.08874961 0.73746616
0001b0 fc 3b 93 3d 74 1d 59 bd b9 08 86 bf 9d 95 15 be
       0.071891755 -0.053006604 -1.0471412 -0.14607854
0001c0 df ba 0f bf 86 cb 1b 3f af 37 d0 be 92 92 16 3f
       -0.5614452 0.6085743 -0.40667483 0.588174
0001d0 31 bf 6a bf 01 25 ac 3f 8a 68 12 be a1 bb 03 bd
       -0.91697985 1.3448793 -0.14297691 -0.03216136
0001e0 86 93 de 3e 79 6f 2c be 3e 49 1f bf c1 15 37 3e
       0.43471926 -0.16839398 -0.62221134 0.17879392
0001f0 d2 d9 21 3f a5 26 a8 be 53 2a 1d be 34 20 98 be
       0.6322299 -0.32841983 -0.15348177 -0.2971207
000200 c3 d9 8e 3e ee 4f 8e 3e 9f ad 68 3e 00 ff 2f 3f
       0.27900514 0.27795357 0.22722481 0.68748474
000210 4b 72 3c 3f 89 41 be be 31 1e 87 3c 92 f5 0b bf
       0.736119 -0.37159374 0.016493889 -0.54671586
000220 4c 41 7c bd 2c 58 58 3f 0b 1e 20 3f 42 a0 9f 3f
       -0.06158571 0.8450954 0.6254584 1.2470782
000230 bd 6d 20 3f a2 18 43 bf 17 ba 71 bd 10 46 0a 3f
       0.6266745 -0.7620946 -0.05901536 0.54013157
000240 6d 81 31 39 b6 73 ae 3e b5 c6 24 3f 2c 38 36 3e
       0.0001692825 0.34072655 0.643657 0.17794865
000250 55 da 0d be c5 9f 92 be e8 84 a5 3e 89 70 22 be
       -0.13852818 -0.2863752 0.32327962 -0.15863241
000260 79 0d 70 3e b9 34 4e bf ac ae 26 3f 90 5d f7 3e
       0.2344264 -0.805492 0.6511028 0.4831357
000270 30 77 18 bf e5 58 d4 bd 46 b5 7d bb a1 b5 6c 3e
       -0.59556866 -0.10368518 -0.0038712784 0.23116161
000280 d5 1a 3a 3f 2b e4 03 be 5f 74 28 3f 16 98 51 40
       0.7269719 -0.12880008 0.6580257 3.2749076
000290 31 fe 9b 3f f4 fc 38 3e 42 6a 21 3e 17 b2 11 3f
       1.2186948 0.18065244 0.1576319 0.5691237
0002a0 bf bf 50 bf 5c b8 67 3f bc 0c c2 be a8 5c 25 bf
       -0.8154258 0.90515685 -0.3790034 -0.6459451
0002b0 02 f0 06 3f 6c 32 ce 3e 30 aa 41 be 35 d0 80 3e
       0.5270997 0.40272844 -0.18912578 0.2515885
0002c0 33 6e 2e 3f e8 7d dc 3d 79 80 7e 3e 8f 1e e6 3d
       0.681369 0.10766202 0.24853696 0.11236297
0002d0 96 ea 02 bf c9 9d 1f c0 1b c4 bb bf 7b 35 ae bd
       -0.511392 -2.4940054 -1.4669222 -0.08506294
0002e0 8f 86 61 bf 3f f9 ee 3e 22 ee c4 be 32 2f 9b 3d
       -0.88095945 0.46674535 -0.3846293 0.07577361
0002f0 76 1c 7b bf be 3e cf 3e 42 03 08 bf 99 44 cb bd
       -0.980903 0.40477556 -0.5312997 -0.09925193
000300 0a 3c fd bd 1d 38 c7 3d 48 8e 2a bf f6 66 7f bf
       -0.12364967 0.097275 -0.66623354 -0.9976648
000310 6c 5a 4e 3e ca 6e e6 3d eb 7a bc bd 53 8b b6 3e
       0.2015168 0.112516 -0.09203132 0.3565317
000320 5c 1a b2 3e 44 83 f3 3d 2a 87 06 3f f4 24 9a bd
       0.34785736 0.11890271 0.52549994 -0.075265795
000330 b8 ec 99 3e 84 3f 11 bf 15 07 a0 3a 3f fe 02 bf
       0.30063415 -0.5673754 0.0012209142 -0.511692
000340 93 0c 04 c1 3f b0 23 bf 51 fc ce be c8 68 8d be
       -8.25307 -0.63940805 -0.40426877 -0.27619004
000350 7a c5 08 3f e6 12 4b be 6a 90 24 bf bf 81 91 3f
       0.53426325 -0.19831428 -0.6428286 1.136772
000360 a0 0e 95 bf 24 99 0a bf bc a2 07 bf ab 06 e5 bd
       -1.1645088 -0.54139924 -0.5298269 -0.111829124
000370 15 a3 7f bf e5 84 58 3f fa c2 3e be 71 84 ea 3e
       -0.9985822 0.8457778 -0.18629065 0.4580417
000380 09 61 8b 3e a4 57 02 3f 45 5b e9 3e 02 a0 0d 3e
       0.2722247 0.5091498 0.45577446 0.1383057
000390 b2 a1 f7 3e 5d 5d fd 3f 8a f4 f7 3e 92 4f 60 be
       0.4836555 1.9794117 0.48428756 -0.21905354
0003a0 2a 3c 01 bf 80 93 0b be 49 0a 9e 3e 7a 10 43 3e
       -0.5048243 -0.13630486 0.30867222 0.19049254
0003b0 ab 6c 14 be 41 34 2f be 2a 13 88 3e 7a 07 97 be
       -0.14494579 -0.17109777 0.2657712 -0.29497892
0003c0 64 c2 8b 3e 9f 82 53 be 14 bb e7 3e 40 7a 3e 3f
       0.27296746 -0.20655297 0.45259917 0.7440529
0003d0 8f 1b 7d 3f 1b ca 1c bf 4d 97 5e 3e 81 1e 9c 3e
       0.98870176 -0.6124589 0.21737404 0.30492023
0003e0 a6 ee ec be 74 df 75 bf 1d 6f 55 3e db 10 90 3e
       -0.46275824 -0.9604409 0.20843168 0.2813786
0003f0 10 34 72 3f 7b 42 5a 3f 4c c4 fb bb 06 82 12 bf
       0.9461069 0.8525769 -0.0076833125 -0.5722965

fc2.bias f4 [128]
000000 2b 1f b9 bf 58 84 b1 3f e8 49 2a 40 b2 2f 35 c0
       -1.4462637 1.3868513 2.6607609 -2.831036
000010 b8 5a 25 c0 9f 27 c6 3f 95 43 b6 3f 60 7b 80 3f
       -2.583662 1.5480841 1.4239374 1.0037651
000020 f4 b7 06 c0 f3 6c 00 40 fd d3 02 c0 b7 ad 69 c0
       -2.1049776 2.0066497 -2.0441887 -3.6512277
000030 98 3a 59 c0 88 6d 03 40 01 7d e5 3f 9a ca ae 3f
       -3.3942013 2.0535603 1.7928773 1.3655579
000040 4e e3 ed 3f 29 92 62 c0 f0 3b 56 bf 62 70 1e c0
       1.8584993 -3.540171 -0.8368521 -2.4756093
000050 42 2d eb 3d 86 94 ba 3f ae 29 32 c0 48 fb 73 c0
       0.114832416 1.4576576 -2.783794 -3.812212
000060 dc 36 d5 3f 0c 2f 01 40 cd d3 8e bf c6 50 d8 3f
       1.6657367 2.0184965 -1.1158386 1.689965
000070 a6 fe d8 3f b5 70 b3 bf ff a5 b2 3f f8 87 a6 3f
       1.6952713 -1.401877 1.3956908 1.3010244
000080 d2 32 16 c0 6b 0a fc 3f f3 1e fb 3f 92 6f 57 be
       -2.3468518 1.9690679 1.961882 -0.21038654
000090 45 a9 12 c0 65 11 09 40 94 67 b4 3f 1e 71 c2 3f
       -2.2915814 2.1416867 1.409411 1.5190771
0000a0 94 85 43 40 d8 62 e1 3f fa a0 60 bf 98 82 0b 40
       3.055028 1.760829 -0.8774563 2.1798458
0000b0 a5 0b 45 3f 58 b2 1a c0 d3 2d 57 40 f9 83 bf 3f
       0.76970893 -2.4171352 3.362172 1.496215
0000c0 50 25 23 40 19 19 56 bf 1c 7a 89 c0 f0 3c b5 bf
       2.5491524 -0.83632046 -4.296156 -1.4159222
0000d0 ff 79 2d 40 03 41 e4 3f b2 64 1d bf 6e ee c9 3f
       2.710571 1.783234 -0.61481774 1.5775888
0000e0 04 96 e3 3f 91 7c c4 3f 18 93 58 c0 9d b0 48 bf
       1.7780156 1.5350515 -3.383978 -0.7839449
0000f0 64 ce 92 3f 44 ca be 3f 35 60 fa 3f 39 76 10 40
       1.1469235 1.4905477 1.956061 2.2572157
000100 77 e0 4a c0 ff 1d bf 3f 7d ae 23 40 34 b5 22 c0
       -3.1699502 1.4931029 2.557525 -2.5423098
000110 4c 01 07 40 7a 10 ae 3f c4 28 0b 40 97 c1 f2 3e
       2.1094542 1.3598778 2.1743631 0.47413322
000120 d1 f0 d2 bf 51 ea e1 3f f0 b6 ee 3f f3 aa 12 40
       -1.6479741 1.7649633 1.8649578 2.291684
000130 4d 9e 7c 3f c9 51 49 3e 12 9b cb 3f 0c de 15 40
       0.9867905 0.19660105 1.5906699 2.3416777
000140 d7 6e 1d 40 9d 40 1a 40 7c 6e 07 c0 7a c5 e4 3f
       2.4598901 2.4101937 -2.1161184 1.7872765
000150 f1 15 ca 3f fa e8 0d 40 aa b0 fd 3f e5 d5 a6 3f
       1.5787946 2.2173448 1.9819539 1.3034025
000160 40 13 56 bf d4 f6 e5 3f 41 7d 81 3e d3 0f ea bf
       -0.83623123 1.7965951 0.25290874 -1.8286079
000170 4f 37 e5 bf 68 cf 11 40 23 ef cd 3f 51 24 fb 3e
       -1.7907504 2.278284 1.6088604 0.49051145
000180 24 8b 4c c0 41 72 9d 3f 6d 9d c9 3f 74 3f 42 c0
       -3.1959925 1.2300493 1.5751168 -3.0351229
000190 0a 9f cf 3f fd 50 fa 3f 05 59 1d 40 15 c5 48 c0
       1.622041 1.9555966 2.4585583 -3.137029
0001a0 da 4e f5 3f f6 c8 4f c0 2d a3 0a 40 54 dd 75 c0
       1.9164689 -3.2466407 2.1662095 -3.8416338
0001b0 68 2a 38 c0 14 4b 64 c0 ba 99 d1 3f 31 c8 48 bf
       -2.8775883 -3.5670824 1.6375039 -0.7843047
0001c0 59 4a 38 bf 1a 72 ea be 92 ab 2d c0 54 2c fe 3f
       -0.71988446 -0.45790178 -2.7135968 1.9857278
0001d0 c0 3e f1 3f 59 2b f4 3f 60 0d 9d 3e fd 5a 93 c0
       1.8847275 1.9075729 0.30674267 -4.604857
0001e0 84 57 19 40 f6 7d b6 3f 78 80 e1 3f c6 80 c4 3f
       2.3959665 1.425719 1.761733 1.5351799
0001f0 47 d2 60 bf f6 7d b7 3f 78 b6 d4 3f 93 15 ad bf
       -0.8782086 1.4335315 1.6618185 -1.3522209

fc3.weight f4 [7, 128]
000000 d4 df 4c be 69 17 35 3d b4 24 48 3e e4 46 3c bf
       -0.20007259 0.04421178 0.19545251 -0.7354567
000010 67 e2 37 bf 3c 4f f8 3e 01 3d a3 3e cf 90 83 3e
       -0.7182984 0.4849795 0.3188248 0.25696418
000020 ad c5 46 be e2 48 8d 3f a3 d3 91 bf 9a ad 66 bf
       -0.19411345 1.1037867 -1.1392711 -0.90108645
000030 72 dd 5c be 68 a2 cb 3e 93 2e 9c 3e 42 c1 bc 3d
       -0.2156885 0.39772344 0.30504283 0.092165485
000040 5d b8 b1 3e cf 60 49 be ca c6 f7 be 02 4f 3c be
       0.3471097 -0.19665836 -0.48393852 -0.18389514
000050 88 66 42 bf 45 64 bf 3e 49 48 d3 be 2b ea 4e bf
       -0.759377 0.37381187 -0.41266087 -0.8082606
000060 03 2b d4 3e 4f 7a 5b 3e a0 69 ff bc 78 db 86 3e
       0.41439065 0.21433376 -0.031178296 0.26339316
000070 38 cc 1d 3f 7d cf 93 3e 8d 8f 4c 3e 41 2e 00 3e
       0.6163974 0.28869238 0.19976635 0.12517644
000080 c8 27 c6 be 84 11 c9 3c 05 4a 0f bf 43 3f b1 be
       -0.38702226 0.024544485 -0.5597232 -0.34618577
000090 9d a9 b3 be a5 7b 17 3f cf fc 32 3e 5d e0 c4 3e
       -0.35090342 0.5917304 0.17479251 0.38452426
0000a0 8f cf f9 3e a8 61 c5 3e 8f b1 84 be 6b 43 b2 3d
       0.48791167 0.38551068 -0.25916716 0.08704265
0000b0 ac 3d d2 be f0 34 2c bf e1 ea 12 bc b2 6d 4d bf
       -0.41062677 -0.67268276 -0.008967132 -0.80245507
0000c0 31 b1 21 3f 67 1b 40 bf a1 b6 09 be ce 71 37 bd
       0.63161 -0.7504181 -0.13448574 -0.044786267
0000d0 b6 17 7e 3e 4d ad 13 3d bd 75 f4 bd 65 a5 68 3e
       0.24813733 0.036053944 -0.11936519 0.22719343
0000e0 ea b7 db 3e 0e 47 47 3f e0 7d 26 bd 4a f0 d3 bc
       0.42913753 0.77842796 -0.040647388 -0.025871415
0000f0 6f 4a 5f 3e b1 6e 94 3e d6 3f ea 3e 1b ce 50 3e
       0.21805738 0.289907 0.45751828 0.20391123
000100 09 c7 be be 1a 0e ef 3e 09 65 b7 3e c9 c5 b8 3d
       -0.37261227 0.46690446 0.3581927 0.090220995
000110 6c b4 6d 3e 63 73 71 bd c7 e1 db 3e cb d3 a9 bd
       0.23213357 -0.058947932 0.42945692 -0.082923494
000120 63 be ec 3b 14 f6 18 3f 02 03 d9 3e 67 d6 a7 3e
       0.0072248443 0.59750485 0.42385107 0.32780764
000130 ca 1c 82 be 32 fe a6 be 9f 70 02 3f be 26 af 3e
       -0.2541259 -0.3261581 0.50953096 0.34209245
000140 22 72 e0 3e e2 f1 03 3e 21 d3 ed be ee d7 9c 3e
       0.43837076 0.1288524 -0.4645014 0.3063349
000150 1a c3 f8 3e 55 13 a2 3d 5d b6 8b 3e c9 cc dd 3e
       0.4858635 0.079138435 0.2728757 0.433203
000160 67 d2 93 3d da 66 3a 3d 60 3d cd be 47 80 08 bf
       0.072178654 0.045508243 -0.40085888 -0.53320736
000170 00 d8 43 be db d5 83 3e fe ac 86 be fc 28 73 3d
       -0.19125366 0.25749096 -0.26303858 0.059365258
000180 ad ab a1 be ac 21 46 bf 72 25 d5 bd 10 62 35 bf
       -0.3157629 -0.7739513 -0.10407533 -0.70852757
000190 1b 7a 89 3e 46 ee 09 3d 3a 81 0c 3e 33 29 93 bf
       0.26850972 0.0336745 0.13721171 -1.1496948
0001a0 ba df c6 3e 25 24 ce be eb 2d 35 3e d0 dc 2a bd
       0.38842565 -0.4026195 0.17693298 -0.04171449
0001b0 a7 24 d6 bb 7b 1d 06 bf 29 9d a0 3e bf e0 66 be
       -0.006535131 -0.52388734 0.31369904 -0.22546671
0001c0 78 2e 6d 3d 75 18 d4 be fb 2a 18 bf 3a 94 4d bd
       0.057905644 -0.4142491 -0.59440583 -0.050190188
0001d0 9b 79 7e 3e 58 52 d4 be 96 18 2a be 82 7f 4c be
       0.24851076 -0.41469073 -0.16610941 -0.19970515
0001e0 8a d4 8b 3e 7b b1 5a 3e d2 82 91 3c 26 a7 4b 3e
       0.27310592 0.21356766 0.017762575 0.19887981
0001f0 f2 a4 00 bf 6b e6 21 3f 45 6f 29 3e d1 70 d4 be
       -0.50251687 0.63242215 0.16546352 -0.41492322
000200 99 dd ae be 26 cf f6 3e bd 18 1f 3e 24 29 a6 be
       -0.3415344 0.48204917 0.1553678 -0.32453263
000210 b8 cd 34 bf 92 19 b7 3e 40 f8 5f 3e 63 a8 83 be
       -0.706264 0.35761696 0.21872044 -0.25714406
000220 37 38 1d bf e4 ae 38 3e c6 dc 2b bf dd 27 c7 be
       -0.614139 0.18035465 -0.6713375 -0.388976
000230 1a 51 95 be 21 c1 04 3f fa 3c 09 3f 16 cf b0 3e
       -0.29163438 0.5185719 0.5360867 0.34532994
000240 7b af 2c 3f 58 dd c3 be 3f 7a 1d bf e7 8c b5 3e
       0.6745526 -0.3825481 -0.6151466 0.35459062
000250 4b bc a0 be 29 e6 04 3f 9c 93 7e bf f1 99 7e bf
       -0.31393656 0.51913697 -0.99443984 -0.99453646
000260 40 aa d0 3e e8 92 e6 3e be d6 09 be f2 16 83 bd
       0.4075489 0.45033956 -0.13460824 -0.06400861
000270 d1 91 43 3f 08 09 36 3e a8 81 fa 3d 22 7c 32 3f
       0.76394373 0.17776883 0.12231761 0.6972066
000280 b6 80 90 bd f5 74 f3 bd 6d 89 1d bf 74 55 da be
       -0.070558 -0.11887542 -0.6153782 -0.4264332
000290 df 19 46 be be ca 1d 3f 10 d8 ca 3e bb ce 7b be
       -0.19345807 0.61637485 0.39617968 -0.2459058
0002a0 59 34 7b 3e 7f 72 f6 3e 63 56 e3 bc 6f 46 24 3e
       0.24531688 0.4813423 -0.027751153 0.16042493
0002b0 9e 6e 2c bf 9c ef 86 bf 12 3a 12 3f 00 2c fd 3d
       -0.6735629 -1.0541873 0.5711986 0.12361908
0002c0 36 c9 63 3e a7 be bb be c2 17 4e 3d 64 98 8c be
       0.22244725 -0.36668894 0.050315626 -0.27460015
0002d0 07 d4 49 3f 17 42 17 3f b9 43 5a bf 10 60 5d 3d
       0.78839153 0.5908522 -0.85259587 0.05404669
0002e0 f4 63 de 3e 4f 8e 87 3b 8a 50 67 3d 81 c5 91 3c
       0.43435633 0.0041368376 0.056473292 0.017794373
0002f0 76 79 c0 3e 9e 8f 64 3d 6c c0 86 3e 5e 2c 59 3e
       0.37592667 0.055801027 0.2631868 0.21208331
000300 6e a9 d5 be 84 04 b0 3e 28 09 a8 3e c6 0e 20 be
       -0.41730827 0.34378445 0.32819486 -0.15630636
000310 4c 2a dc 3e d8 ee 6f 3e 86 2b 0c 3e 5c f8 36 be
       0.4300102 0.23430955 0.13688478 -0.17868179
000320 a4 d9 13 3c bd 77 8e 3e 7c 77 7c 3e d5 67 1d 3f
       0.009024058 0.27825728 0.24654955 0.6148656
000330 60 b8 30 bf cd b3 7c be a3 21 fe 3e 5d 9c 3c 3f
       -0.69031334 -0.24677964 0.49635038 0.7367609
000340 d4 a9 85 3d 92 43 63 3f 8c 6c 60 be b1 c9 91 3e
       0.06526533 0.8877498 -0.21916407 0.2847419
000350 c6 f8 97 3e 6e c0 27 3f f9 16 ac 3e f0 04 ec bd
       0.29681987 0.65528 0.33611277 -0.11524379
000360 ba e5 e6 bc f5 5a d2 be c5 cf 6d 3e 75 88 23 bf
       -0.028185714 -0.4108502 0.23223789 -0.6388009
000370 67 9d 09 bf 8e 72 20 3f 13 72 8a bd b3 f9 94 3e
       -0.537558 0.62674797 -0.06760039 0.29096755
000380 90 a5 f9 3d af f0 12 bf 65 b6 ef 3d 71 3f 06 bf
       0.12189782 -0.57398504 0.11704711 -0.52440554
000390 03 98 fe bc f3 a4 aa 3e 60 88 bb 3d 76 05 d2 bf
       -0.031078344 0.3332897 0.09156871 -1.6407917
0003a0 a7 21 15 3d 42 fd c3 bc 6d 55 2b bd 7b ac a2 bd
       0.036409047 -0.023924474 -0.041829515 -0.07943054
0003b0 95 65 12 bf ea 99 1b bf 91 27 80 3e b2 83 6d 3e
       -0.5718625 -0.6078173 0.25030187 0.23194769
0003c0 b0 eb 9a 3b 38 5d 41 bf f9 f2 67 bf d8 4a 0b 3f
       0.004727803 -0.75532866 -0.9060512 0.5441108
0003d0 06 68 17 3f 9b bc 16 be f4 27 32 bf 10 d2 8d bc
       0.591431 -0.14720385 -0.69592214 -0.01731208
0003e0 10 d1 43 bf 51 bf a7 3f 17 02 51 bf ae 67 b3 3d
       -0.7649088 1.310526 -0.81643814 0.0876001
0003f0 91 db 96 be 27 39 3b 3f a8 22 dc 3e 8e 8e 89 be
       -0.2946439 0.7313408 0.4299519 -0.26866573

fc3.bias f4 [7]
000000 2e 03 06 40 39 0f 04 40 b4 61 02 40 21 a1 05 40
       2.093944 2.063429 2.0372133 2.0879595
000010 e8 ea 06 40 66 06 12 40 f8 4e 2d 40
       2.1080875 2.2816405 2.7079449
