connect4_dqn_minimax.pth (torch, 70876 bytes, 8 tensors)

fc1.weight f4 [64, 126]
0.095071904 -0.09986586 -0.031229228 0.2684547 -0.020784251 0.0014376938 -0.08137758 0.07887832
0.022400005 -0.05313119 0.16953525 0.030191034 -0.036339786 -0.08030932 -0.08635519 -0.09086595
-0.08241888 -0.040217213 0.020502701 -0.07319505 0.03607413 -0.1738081 -0.8281142 0.2050398
-0.009834632 -0.010704011 -0.015983969 -0.042818587 -0.17209983 -0.06346826 -0.22457816 -0.10306606
-0.08070774 0.052308023 -0.03949686 -0.054400027 0.09893043 -0.22623502 0.040087417 -0.058988888
0.06825757 -0.02028519 -0.050041847 -0.029589528 -0.070812985 -0.16520292 -0.07891035 -0.042709343
-0.05934275 -0.057503603 -0.07441918 -0.064949825 -0.18347538 -0.025570199 -0.012404913 -0.14420891
-0.0012802029 -0.08977272 -0.07916091 -0.13546771 -0.15059781 -0.13776141 0.018829 -0.050840136
-0.07982623 -0.08569372 0.12972525 -0.06671066 -0.10007294 -0.12363652 0.0067517003 -0.012444893
-0.017548706 0.040917795 0.0060948567 -0.10199479 -0.052995704 0.07757681 -0.13244902 0.070783906
0.004706779 -0.04128043 0.046367764 -0.055832267 -0.05055216 0.073408775 -0.039966777 -0.14543675
-0.088315465 -0.038730543 -0.026557729 0.26913998 -0.0066800206 0.03345328 0.18120149 -0.035525158
0.009923689 0.079199046 0.026238218 -0.19461511 0.08723684 0.25048772 0.0352071 0.07575998
-0.06471008 -0.059774127 -0.069564335 0.13363446 0.4107834 -0.412909 -0.0991852 -0.03458857
-0.39559656 0.18161403 0.03498069 0.10065625 -0.23874609 0.03400277 0.01690191 -0.12950437
-0.12357311 -0.17968766 -0.06829987 0.030560795 -0.30056426 -0.03706191 -0.11428043 0.2816575
-0.06377116 -0.42719615 -0.0144015625 0.049922198 0.068458244 -0.31041813 0.35789406 -0.057931297
-0.44845146 -0.028195336 -0.0807551 0.045107886 -0.14649628 0.042595252 0.10726955 -0.32140908
0.029435106 -0.082552455 0.04607649 -0.4234246 -0.33250338 0.42915505 -0.10437738 0.07673815
0.049248114 -0.0054377764 -0.6046129 -0.28549144 0.15682767 -0.19722551 0.06513563 -0.047278948
0.053869665 -0.18918912 -0.15722929 0.2136963 -0.16630086 -0.022492766 -0.00164707 -0.055186257
0.025925355 -0.086013 -0.056232817 -0.02791047 -0.118135795 -0.042863037 -0.12734108 -0.06974403
-0.13138089 -0.03131496 0.09522539 -0.13300787 -0.025529683 -0.044440594 0.06786664 0.004623245
0.031042518 0.048635136 0.024446372 0.012200059 -0.054430485 -0.0071880603 -0.10896997 -0.00788098
0.09921913 0.0037468274 -0.09084508 -0.120881476 0.01681565 -0.005813811 0.053910535 0.040989034
0.103746295 -0.09056719 -0.07364005 0.08847134 0.13900018 -0.032587625 0.09959246 0.117557324
0.1962346 0.16412711 0.5577334 0.67992014 -0.019775495 -0.18205507 0.00031331182 0.0037360266
0.060139507 -0.0990044 0.021139432 0.03027317 0.49289462 -0.010273062 -0.06582136 -0.032900456
-0.23923375 -0.24904661 -0.0005569011 -0.37011337 -0.052557345 0.08231364 0.008964084 -0.0058515645
-0.090121865 -0.13909398 -0.30547523 -0.20301913 -0.26071778 -0.19981313 -0.11516017 -0.09194193
-0.2570333 -0.50115883 -0.16394833 -0.18763179 -0.3017826 -0.06976218 -0.19860066 -0.16942246
-0.24780478 -0.16138901 -0.4010967 -0.39248338 0.0102116745 -0.25633273 -0.044103727 0.025938982
00000000: 0fb5 c23d 7986 ccbd 70d4 ffbc e572 893e
00000010: bc43 aabc 0071 bc3a 4aa9 a6bd f58a a13d
00000020: 3780 b73c 17a0 59bd a69a 2d3e 3053 f73c
00000030: 07d9 14bd 3679 a4bd fdda b0bd ed17 babd
00000040: 3bcb a8bd ceba 24bd 48f5 a73c 49e7 95bd
00000050: 78c2 133d c0fa 31be 4bff 53bf f4f5 513e
00000060: 7021 21bc e05f 2fbc d0f0 82bc 8b62 2fbd
00000070: f03a 30be a6fb 81bd d1f7 65be 4c14 d3bd
00000080: 194a a5bd f040 563d 76c7 21bd 90d2 5ebd
00000090: 0a9c ca3d 27aa 67be b432 243d 559e 71bd
000000a0: a0ca 8b3d 202d a6bc aef8 4cbd bd65 f2bc
000000b0: 6606 91bd f42a 29be c09b a1bd feef 2ebd
000000c0: 6211 73bd e688 6bbd 1569 98bd 6a04 85bd
000000d0: f8e0 3bbe 9878 d1bc fa3d 4bbc 80ab 13be
000000e0: 7bcc a7ba c3da b7bd 1d1f a2bd 0cb8 0abe
000000f0: 5036 1abe 5411 0dbe 463f 9a3c bf3d 50bd
00000100: ef7b a3bd 3080 afbd b2d6 043e 999f 88bd
00000110: 0bf3 ccbd 2535 fdbd 5e3d dd3b aae5 4bbc
00000120: 4ec2 8fbc 6b99 273d 5db7 c73b a5e2 d0bd
00000130: 0612 59bd 97e0 9e3d b7a0 07be 27f7 903d
00000140: 533b 9a3b ab15 29bd 20ec 3d3d 60b0 64bd
00000150: c80f 4fbd 5757 963d 34b4 23bd 5fed 14be
00000160: bdde b4bd eba3 1ebd 988f d9bc b7cc 893e
00000170: 13e4 dabb 4e06 093d e28c 393e d482 11bd
00000180: f896 223c 1c33 a23d 88f1 d63c 2f49 47be
00000190: 3aa9 b23d ed3f 803e 5235 103d 0c28 9b3d
000001a0: b886 84bd b7d5 74bd bf77 8ebd 79d7 083e
000001b0: 3452 d23e cf68 d3be 9c21 cbbd bfac 0dbd
000001c0: a28b cabe 07f9 393e e947 0f3d dd24 ce3d
000001d0: db79 74be 7d46 0b3d e075 8a3c cb9c 04be
000001e0: e613 fdbd 0b00 38be cde0 8bbd a25a fa3c
000001f0: 8fe3 99be 3bce 17bd dc0b eabd 6935 903e
00000200: 749a 82bd 74b9 dabe 88f4 6bbc 387b 4c3d
00000210: d633 8c3d 20ef 9ebe e43d b73e 5e49 6dbd
00000220: 6e9b e5be e8f9 e6bc ee62 a5bd 0cc3 383d
00000230: 1f03 16be 5c78 2e3d 23b0 db3d bb8f a4be
00000240: e421 f13c 4311 a9bd b4ba 3c3d 1ccb d8be
00000250: e23d aabe 36ba db3e cfc3 d5bd e428 9d3d
00000260: 64b8 493d 602f b2bb e9c7 1abf ef2b 92be
00000270: 6f97 203e 7cf5 49be d465 853d 92a7 41bd
00000280: 70a6 5c3d cbba 41be b700 21be 34d3 5a3e
00000290: c64a 2abe c042 b8bc 80e2 d7ba fc0a 62bd
000002a0: 6961 d43c 9527 b0bd 6254 66bd 7fa4 e4bc
000002b0: 2ef1 f1bd 2791 2fbd b365 02be f5d5 8ebd
000002c0: b688 06be 1e44 00bd 8705 c33d 3733 08be
000002d0: a023 d1bc 5707 36bd aafd 8a3d 977e 973b
000002e0: e14c fe3c a335 473d c243 c83c c2e2 473c
000002f0: 80f2 5ebd d289 ebbb a62b dfbd 3a1f 01bc
00000300: 6633 cb3d 558d 753b fc0c babd b590 f7bd
00000310: f9c0 893c c881 bebb 4bd1 5c3d 1ee4 273d
00000320: f078 d43d 4a7b b9bd 98d0 96bd 7630 b53d
00000330: 1056 0e3e 9a7a 05bd 22f7 cb3d e5c1 f03d
00000340: b9f1 483e f010 283e 9ec7 0e3f 3f0f 2e3f
00000350: 3800 a2bc a56c 3abe 0044 a439 20d8 743b
00000360: d854 763d d2c2 cabd 9a2c ad3c 70ff f73c
00000370: af5c fc3e 5850 28bc 59cd 86bd a1c2 06bd
00000380: b1f9 74be 1306 7fbe 00fd 11ba 807f bdbe
00000390: 5f46 57bd 0e94 a83d 18de 123c 7bbe bfbb
000003a0: d091 b8bd a76e 0ebe 4067 9cbe 3fe4 4fbe
000003b0: cd7c 85be d09b 4cbe 18d9 ebbd 0d4c bcbd
000003c0: de99 83be f24b 00bf 12e2 27be 8c22 40be
000003d0: 4083 9abe 79df 8ebd f95d 4bbe 157d 2dbe
000003e0: 89c0 7dbe 2943 25be 8c5c cdbe 95f3 c8be
000003f0: de4e 273c 0b3e 83be 1ca6 34bd fd7d d43c

fc1.bias f4 [64]
-0.08610557 -0.10225123 -0.057307128 -0.003946118 0.008920932 -0.115405396 -0.010073615 -0.124512136
-0.05918197 -0.14683674 -0.15964802 -0.10526669 -0.022829743 -0.12719555 -0.047639027 -0.013640753
-0.0055108294 -0.020174207 -0.0050400747 -0.12983584 -0.023094416 -0.0728229 -0.005880437 -0.08027373
-0.018540015 -0.089157306 -0.16256972 -0.006606299 -0.102612704 -0.11982331 -0.048836265 0.10335835
-0.025647385 -0.13140307 -0.11156797 0.014588844 -0.077103585 -0.035272475 -0.013639423 -0.11637116
-0.0645006 0.0016396597 -0.07794971 0.031983875 -0.008692552 -0.07380215 -0.080288336 0.0025659848
-0.11212238 -0.027542438 -0.11068312 0.07986848 0.0007873522 -0.030947953 -0.058248576 -0.0836098
-0.03747653 0.020399215 -0.050139427 -0.08574218 -0.06301062 0.025669593 -0.05411894 -0.07894484
00000000: 1e58 b0bd 1869 d1bd e1ba 6abd 704e 81bb
00000010: 1a29 123c aa59 ecbd ce0b 25bc 3800 ffbd
00000020: cb68 72bd 5f5c 16be c57a 23be 1096 d7bd
00000030: 7105 bbbc 8d3f 02be 2421 43bd 777d 5fbc
00000040: 3094 b4bb 6144 a5bc 3627 a5bb b0f3 04be
00000050: 8030 bdbc 2c24 95bd aeb0 c0bb 8e66 a4bd
00000060: 3be1 97bc 1b98 b6bd ad78 26be a779 d8bb
00000070: 9c26 d2bd ec65 f5bd 8908 48bd 8bad d33d
00000080: 771a d2bc 878e 06be bf7d e4bd 0c06 6f3c
00000090: 7ce8 9dbd df79 10bd e377 5fbc 0154 eebd
000000a0: e418 84bd dae9 d63a 19a4 9fbd 8601 033d
000000b0: 356b 0ebc 9525 97bd 366e a4bd 152a 283b
000000c0: 6ba0 e5bd aea0 e1bc d5ad e2bd 1692 a33d
000000d0: 5066 4e3a 9086 fdbc 0f96 6ebd 9d3b abbd
000000e0: fd80 19bd 411c a73c 005f 4dbd 9999 afbd
000000f0: b60b 81bd 0a49 d23c d2ab 5dbd d5ad a1bd

fc2.weight f4 [64, 64]
0.18089423 -0.110253766 -0.049629793 -0.013098932 -0.023340752 -0.016984092 -0.07716906 -0.0049793883
-0.15051225 -0.122414075 -0.010181677 -0.14570072 0.27729696 0.21828328 -0.018135203 -0.06272933
-0.08800713 -0.10756461 -0.15726247 -2.5896343e-05 -0.07311819 0.023624644 -0.13829048 -0.42455325
0.45791933 -0.08151881 -0.053334784 -0.07692788 -0.025468236 0.089536384 -0.07877207 0.023139752
0.008338775 0.44030988 0.04338169 0.32499376 -0.017047528 0.04146422 -0.06340658 -0.008571949
0.049978975 -0.061035432 -0.1638796 0.0030893562 0.051522955 0.05246164 0.06456739 -0.14150074
0.052946303 0.03619359 0.008301893 -0.0384761 0.08160039 -0.070710756 0.16962175 -0.1642754
-0.12302452 -0.14099543 0.033933185 -0.07571221 0.038711514 -0.017125994 -0.047709744 0.11733008
-0.015096148 0.098249674 0.094509475 0.04472316 -0.053319562 -0.20581248 0.06519049 -0.09463788
-0.06939669 0.11612587 0.2111785 0.15296121 0.33287048 0.15970543 0.019472327 0.038011704
0.118885554 0.06553265 -0.007708396 0.1609234 0.15184161 0.16983327 0.028024 -0.37144116
0.19969097 0.004796734 0.16110969 0.024831567 0.12993057 -0.04692566 0.25416598 -0.3647875
-0.0876115 0.070666425 0.13592692 0.10791729 0.062617265 -0.056479726 -0.036117956 0.11975191
0.04689517 -0.12280126 0.020724779 0.05068385 0.14087994 0.02564252 0.0021593636 0.07897286
-0.00348366 0.16112001 0.09287975 -0.0892086 0.09654047 -0.0049145115 0.007944937 -0.08554514
0.03199729 0.12606612 0.10410114 0.16710065 0.11112325 0.13544774 0.04554698 -0.065954804
0.46044555 0.21553794 -0.035618287 -0.52010816 0.18298529 0.089635454 0.16053346 0.09215564
0.09449712 0.059223413 0.17677332 0.15279996 0.19161738 0.2185226 0.026061924 -0.099002056
0.13090953 0.008507397 -0.06520424 0.27006623 0.15302925 0.14202665 0.10137815 -0.20319013
0.3423883 0.1294979 0.16025658 0.1826785 0.3226449 0.17912544 0.23997244 -0.016676659
-0.09849471 -0.15849403 0.1278367 0.3821677 0.07654669 0.16808814 -0.034375437 0.46448553
0.25773707 0.15521678 -0.1312568 -0.5625729 0.18718994 0.32453525 0.13437265 -0.13117659
0.20382375 0.12784672 0.068302915 -0.19080356 0.09683376 0.06726929 -0.097622745 0.16462676
0.27806723 -0.074142545 0.26133344 -0.025041074 0.2511135 0.14877878 0.19473922 0.3277642
0.116166234 -0.0306132 -0.026390303 -0.078370616 0.1027111 -0.05224047 0.0637893 0.19141339
0.26561758 0.13425784 0.1794664 -0.051722076 0.007415522 -0.09170019 0.15884782 0.0878527
0.07428016 0.17567639 0.027988724 0.25225893 0.03841304 -0.013559516 0.13879666 -0.049523827
-0.042679854 0.07872142 0.17875162 0.19563678 -0.059218038 0.14103784 -0.14180954 -0.34641773
-0.2225395 -0.080927424 0.086868025 0.14006066 0.15068045 0.15255177 -0.03749549 0.10822131
0.08730594 0.026682293 -0.13461733 -0.11448565 0.25715235 -0.0014649355 0.037884273 -0.026288386
0.18077949 0.11646316 -0.034316923 0.010871925 0.06436385 0.10553694 -0.02635271 0.04961989
0.2565751 0.07058595 0.13628584 0.13241138 0.23447348 0.01739536 0.20506597 0.07617581
00000000: 563c 393e bacc e1bd 9c48 4bbd e79c 56bc
00000010: 1b35 bfbc 3922 8bbc d00a 9ebd 232a a3bb
00000020: e21f 1abe 3bb4 fabd 0cd1 26bc 9232 15be
00000030: def9 8d3e a785 5f3e 4790 94bc 3c78 80bd
00000040: 153d b4bd d64a dcbd 6a09 21be f93b d9b7
00000050: fdbe 95bd 7888 c13c 059c 0dbe 0b5f d9be
00000060: 6774 ea3e 55f3 a6bd 9375 5abd 5d8c 9dbd
00000070: c3a2 d0bc da5e b73d 4053 a1bd 948f bd3c
00000080: 5b9f 083c 4c70 e13e 00b1 313d 9565 a63e
00000090: 42a7 8bbc 63d6 293d 4fdb 81bd 5c71 0cbc
000000a0: c1b6 4c3d 4a00 7abd 0ed0 27be cc76 4a3b
000000b0: bc09 533d 04e2 563d e83b 843d 92e5 10be
000000c0: 39de 583d bb3f 143d aa04 083c 1d99 1dbd
000000d0: 1b1e a73d cdd0 90bd 53b1 2d3e cf37 28be
000000e0: 48f4 fbbd 1b61 10be 86fd 0a3d 010f 9bbd
000000f0: f78f 1e3d d04b 8cbc 4b6b 43bd c14a f03d
00000100: d555 77bc 2037 c93d 2f8e c13d a22f 373d
00000110: 9d65 5abd 82c0 52be 9782 853d 81d1 c1bd
00000120: da1f 8ebd 66d3 ed3d 2d3f 583e dda1 1c3e
00000130: 006e aa3e d289 233e 6e84 9f3c 29b2 1b3d
00000140: 457a f33d fb35 863d b696 fcbb 1bc9 243e
00000150: 5e7c 1b3e c6e8 2d3e 9692 e53c 892d bebe
00000160: ca7b 4c3e ec2d 9d3b f0f9 243e 926b cb3c
00000170: 850c 053e 1f35 40bd 0b22 823e 6dc5 babe
00000180: a86d b3bd 8fb9 903d 6d30 0b3e bd03 dd3d
00000190: 7b3d 803d 4957 67bd 6cf0 13bd 7d40 f53d
000001a0: 2615 403d 3a7f fbbd 03c7 a93c de99 4f3d
000001b0: d542 103e 4310 d23c 1c84 0d3b 86bc a13d
000001c0: 1e4e 64bb a5fc 243e bd37 be3d 00b3 b6bd
000001d0: 03b7 c53d e909 a1bb 7b2b 023c 4a32 afbd
000001e0: 970f 033d 7a17 013e fa32 d53d 6f1c 2b3e
000001f0: 9694 e33d d0b2 0a3e 788f 3a3d 5013 87bd
00000200: 85bf eb3e fab5 5c3e 7be4 11bd cf25 05bf
00000210: 7f60 3b3e cb92 b73d e262 243e 19bc bc3d
00000220: b587 c13d 4094 723d 1104 353e 9877 1c3e
00000230: 5937 443e 63c4 5f3e d17f d53c 97c1 cabd
00000240: 260d 063e 9c62 0b3c cd89 85bd 1f46 8a3e
00000250: b3b3 1c3e 6f6f 113e 599f cf3d 1311 50be
00000260: 854d af3e 199b 043e 4d1a 243e 1310 3b3e
00000270: b631 a53e a96c 373e 56bb 753e 7d9d 88bc
00000280: 98b7 c9bd 424c 22be a0e7 023e 7cab c33e
00000290: 83c4 9c3d 4c1f 2c3e 42cd 0cbd 0cd1 ed3e
000002a0: 1df6 833e 26f1 1e3e 2f68 06be c704 10bf
000002b0: b8ae 3f3e 7c29 a63e fc98 093e 2853 06be
000002c0: 2cb7 503e 40ea 023e 66e2 8b3d 0262 43be
000002d0: c750 c63d 7bc4 893d 6fee c7bd eb93 283e
000002e0: d45e 8e3e 0cd8 97bd 7fcd 853e f022 cdbc
000002f0: f391 803e 7759 183e b869 473e b6d0 a73e
00000300: 90e8 ed3d 89c8 fabc 7a30 d8bc c680 a0bd
00000310: 325a d23d 1afa 55bd f7a3 823d df01 443e
00000320: 07ff 873e e37a 093e 0ac6 373e 87da 53bd
00000330: e8fd f23b 4fcd bbbd 01a9 223e 1eec b33d
00000340: 3220 983d 83e4 333e 9c48 e53c 1528 813e
00000350: fe56 1d3d bb28 5ebc b620 0e3e 7fd9 4abd
00000360: 12d1 2ebd b238 a13d aa0a 373e 0255 483e
00000370: 9d8e 72bd 396c 103e 8536 11be aa5d b1be
00000380: 65e1 63be 47bd a5bd dde7 b13d 106c 0f3e
00000390: fa4b 1a3e 8836 1c3e df94 19bd 22a3 dd3d
000003a0: 75cd b23d d394 da3c 20d9 09be 7477 eabd
000003b0: 79a9 833e 1403 c0ba 8a2c 1b3d be5a d7bc
000003c0: 421e 393e 3d84 ee3d e78f 0cbd 2920 323c
000003d0: 32d1 833d c023 d83d a3e1 d7bc 3a3e 4b3d
000003e0: d05d 833e 5e8f 903d 848e 0b3e d996 073e
000003f0: d119 703e b780 8e3c d0fc 513e 1002 9c3d

fc2.bias f4 [64]
-0.14313436 -0.09489885 -0.17004456 -0.059255425 0.06778947 0.44123605 -0.2358792 -0.1854324
-0.19295022 0.15371425 -0.23641616 -0.14035776 -0.4406524 -0.24681163 -0.09035615 -0.075766414
0.010046238 -0.23269077 -0.08505199 0.13091144 -0.32942814 -0.03308997 -0.014919028 0.014869968
-4.654595e-05 -0.1040974 0.10161294 -0.32195753 -0.27092546 -0.28122276 -0.01411164 0.044005077
-0.103188254 0.028064243 -0.0048069996 -0.1359959 -0.3032554 -0.16791919 -0.2301078 -0.06488231
0.36835238 -0.171641 -0.05977469 -0.29801294 0.013746608 -0.090658434 -0.14796652 -0.16905509
-0.022269182 -0.14725134 -0.023567632 0.15893011 0.025917007 -0.060281802 -0.24979399 0.04849475
-0.15364318 -0.031169014 0.26566473 -0.08584777 -0.04752351 0.38474917 -0.18706787 0.052482955
00000000: d091 12be 545a c2bd 2920 2ebe d1b5 72bd
00000010: 35d5 8a3d b1e9 e13e 518a 71be fee1 3dbe
00000020: be94 45be 4567 1d3e 1417 72be f2b9 0fbe
00000030: 319d e1be 30bc 7cbe a50c b9bd 6c2b 9bbd
00000040: fa98 243c 7d46 6ebe bd2f aebd a60d 063e
00000050: ceaa a8be 5989 07bd f06e 74bc 2ba1 733c
00000060: 553a 43b8 0531 d5bd 721a d03d 9ed7 a4be
00000070: beb6 8abe 6efc 8fbe 8234 67bc ab3e 343d
00000080: 5d54 d3bd fce6 e53c 0984 9dbb 8242 0bbe
00000090: 4b44 9bbe 02f3 2bbe 61a1 6bbe 04e1 84bd
000000a0: af98 bc3e a9c2 2fbe 4ed6 74bd 2795 98be
000000b0: 7439 613c 21ab b9bd 8984 17be c71c 2dbe
000000c0: dc6d b6bc 0ec9 16be e810 c1bc 93be 223e
000000d0: e74f d43c 0dea 76bd ffc9 7fbe 6ea2 463d
000000e0: a354 1dbe 2956 ffbc 3505 883e f5d0 afbd
000000f0: 03a8 42bd d8fd c43e b88e 3fbe 5ef8 563d

fc3.weight f4 [64, 64]
0.08770216 0.10772884 0.1471699 -0.11747151 -0.10110343 0.019576838 0.051867377 0.02560938
0.26139545 -0.3235387 -0.25233644 -0.13903715 0.35863265 0.20873061 -0.18379687 -0.28044692
0.043635968 0.22883332 -0.10820705 -0.29545304 0.1295052 -0.11626482 -0.21429743 -0.14602633
-0.14616157 -0.3992672 0.0009267304 0.05663315 -0.054382283 0.0047840714 0.27641383 -0.07267979
-0.26103342 -0.16005404 -0.08770979 -0.111709066 -0.11357166 -0.09470011 -0.1508468 -0.16664644
-0.5982157 -0.07755165 -0.11618427 -0.1798592 0.13330814 0.0044128345 0.0098678535 0.05907059
-0.21835023 0.030380428 -0.0057896706 -0.026279885 -0.011248617 -0.21749595 -0.21340325 -0.021622043
0.06692118 -0.046913363 0.062381387 -0.18007521 0.048125234 0.021076582 0.017509473 -0.1324286
0.178797 0.16819894 0.16218904 -0.04312078 0.034885798 0.32902756 0.0014466245 0.09717832
-0.2282225 -0.13172328 0.04069282 -0.102506645 0.3868037 -0.285583 -0.036268625 -0.06701262
-0.12751393 0.19572093 0.09784326 -0.19119222 -0.0032609128 -0.039895047 0.18962188 -0.04033363
0.00011922097 -0.10292633 -0.021511553 0.24032983 0.17569607 -0.061496813 0.0152282175 -0.08952318
-0.12550955 0.052202743 -0.054695297 0.15882634 0.24553813 0.12053498 -0.033038575 0.009164375
-0.23101662 0.011474176 0.094912305 0.093974836 -0.30342445 -0.16193403 0.06461167 -0.02644613
0.07106994 0.0863574 0.02207354 0.29287788 -0.29591757 0.09396651 -0.070644446 0.088259295
0.10345374 0.14505804 -0.15526433 0.19274627 -0.17386846 0.026997318 0.035516076 0.008775678
0.290438 -0.18981121 0.12741412 -0.023173958 0.09234617 0.1433502 0.0078873085 0.27684033
-0.21347478 -0.131165 -0.026142605 0.012852151 0.05424913 -0.18216224 -0.13994499 0.07007722
-0.07697044 0.025451865 0.048185345 -0.23063125 -0.07267234 -0.21861297 0.19118445 -0.105973154
-0.005773971 -0.07368357 -0.09409252 0.16257201 0.03795367 -0.0704007 0.18415183 0.07313138
-0.12368752 -0.1557252 -0.029977808 0.04384307 0.21253361 -0.008245164 -0.059537634 -0.03463864
-0.27946946 0.2047869 -0.11994274 0.08621475 -0.11491693 0.01202847 -0.0045269364 0.016071798
-0.10801416 -0.0009399836 0.04460684 0.07928164 -0.24077034 0.020899605 -0.1997968 -0.07939699
0.12964731 -0.028261336 -0.3039637 -0.003611771 -0.19377437 -0.07383341 -0.025624575 0.01955523
0.39144847 0.1312373 -0.050371516 -0.050565574 -0.060197882 0.266353 0.13903803 0.22390513
-0.001941843 -0.11928794 -0.19578595 0.28475165 -0.26727468 -0.08771577 -0.07686828 0.1449811
-0.22525457 0.031752486 0.10016329 0.07377209 -0.09563645 -0.14292315 0.035259947 0.092289776
0.09793935 0.013144597 0.088864125 0.16498224 -0.032317646 0.06281902 0.06329844 0.09367499
-0.09186943 0.016324101 -0.062378623 -0.096614644 -0.06091695 0.27723587 0.12198387 0.114243954
-0.22165526 0.097731784 -0.031954184 0.27129376 -0.12497023 0.035164114 0.046965756 0.24926178
0.0040408764 0.23899916 -0.16444428 0.20837198 -0.1588341 -0.12668984 -0.111555 -0.19061485
0.3279696 -0.13823643 0.012752182 0.058923393 -0.30446666 0.12593013 -0.07287523 0.055874884
00000000: 319d b33d f0a0 dc3d b5b3 163e e794 f0bd
00000010: 510f cfbd 9b5f a03c e372 543d c3ca d13c
00000020: a0d5 853e dda6 a5be 3e32 81be c15f 0ebe
00000030: b39e b73e 7abd 553e 3f35 3cbe bd96 8fbe
00000040: a1bb 323d 4853 6a3e a89b ddbd 9f45 97be
00000050: 039d 043e 401c eebd c970 5bbe ed87 15be
00000060: 61ab 15be c06c ccbe d3ef 723a 29f8 673d
00000070: f5bf 5ebd b3c3 9c3b 1d86 8d3e 24d9 94bd
00000080: 2ca6 85be 35e5 23be 31a1 b3bd b9c7 e4bd
00000090: 4298 e8bd 22f2 c1bd 9577 1abe 5da5 2abe
000000a0: aa24 19bf 66d3 9ebd 05f2 edbd 032d 38be
000000b0: ee81 083e 8a99 903b c7ac 213c 01f4 713d
000000c0: 3497 5fbe 60e0 f83c 47b7 bdbb ea48 d7bc
000000d0: 1f4c 38bc 42b7 5ebe 6286 5abe b620 b1bc
000000e0: f90d 893d 3a28 40bd a083 7f3d a365 38be
000000f0: f71e 453d cca8 ac3c 0770 8f3c 5d9b 07be
00000100: 9016 373e 583c 2c3e e214 263e 6a9f 30bd
00000110: 69e4 0e3d 4d76 a83e aa9c bd3a 6d05 c73d
00000120: 29b3 69be 78e2 06be 84ad 263d 01ef d1bd
00000130: 220b c63e ef37 92be 698e 14bd ea3d 89bd
00000140: 0393 02be 116b 483e 0c62 c83d e5c7 43be
00000150: 0ab5 55bb fd68 23bd 3d2c 423e e034 25bd
00000160: 4506 fa38 0acb d2bd ff38 b0bc 0619 763e
00000170: ace9 333e 15e4 7bbd c67f 793c ee57 b7bd
00000180: 9385 00be 8bd2 553d 2d08 60bd 5fa3 223e
00000190: 596e 7b3e 0bdb f63d 7553 07bd 2d26 163c
000001a0: 9f8f 6cbe 2ffe 3b3c 6261 c23d e175 c03d
000001b0: 735a 9bbe 09d2 25be 2053 843d 8ea5 d8bc
000001c0: 1e8d 913d 26dc b03d 92d3 b43c 17f4 953e
000001d0: 8282 97be 8371 c03d 09ae 90bd 4ac1 b43d
000001e0: 8edf d33d 188a 143e 9dfd 1ebe 475f 453e
000001f0: 930a 32be 7b29 dd3c 4e79 113d ddc7 0f3c
00000200: 4ab4 943e df5d 42be d978 023e 50d7 bdbc
00000210: fd1f bd3d 65ca 123e c539 013c 04be 8d3e
00000220: 2299 5abe 1e50 06be 0429 d6bc d491 523c
00000230: 5634 5e3d bd88 3abe bd4d 0fbe a584 8f3d
00000240: aea2 9dbd 6e80 d03c ff5d 453d 992a 6cbe
00000250: 3cd5 94bd 14dc 5fbe dbc5 433e 7408 d9bd
00000260: 9433 bdbb 69e7 96bd 94b3 c0bd 4779 263e
00000270: 4f75 1b3d 3e2e 90bd 4c92 3c3e e8c5 953d
00000280: e24f fdbd 6d76 1fbe 0594 f5bc ca94 333d
00000290: 69a2 593e b916 07bc bcdd 73bd 3fe1 0dbd
000002a0: 9f16 8fbe a8b3 513e 8aa4 f5bd 5c91 b03d
000002b0: 9159 ebbd 0f13 453c b256 94bb 01a9 833c
000002c0: 8736 ddbd 3b69 76ba a9b5 363d 6a5e a23d
000002d0: 808c 76be a635 ab3c 8897 4cbe e49a a2bd
000002e0: 44c2 043e 5184 e7bc 21a1 9bbe 76b3 6cbb
000002f0: ca6c 46be f935 97bd a1ea d1bc 4a32 a03c
00000300: ef6b c83e 1263 063e 5d52 4ebd d91d 4fbd
00000310: 0e92 76bd 6c5f 883e fc5f 0e3e 6347 653e
00000320: 7085 feba 3c4d f4bd 1d7c 48be f8ca 913e
00000330: 3ad8 88be 53a4 b3bd 1e6d 9dbd ed75 143e
00000340: 22a9 66be e50e 023d 6922 cd3d d215 973d
00000350: 0bdd c3bd 725a 12be bc6c 103d 6c02 bd3d
00000360: 6d94 c83d 705c 573c 65fe b53d 1bf1 283e
00000370: 825f 04bd 42a7 803d 9da2 813d acd8 bf3d
00000380: 0a26 bcbd 1fba 853c ba80 7fbd e6dd c5bd
00000390: 0d84 79bd dcf1 8d3e aed2 f93d bcf8 e93d
000003a0: 99f9 62be 9a27 c83d 64e2 02bd 04e7 8a3e
000003b0: 64f0 ffbd 3f08 103d 2a5f 403d 7b3e 7f3e
000003c0: 5469 843b 32bc 743e 1564 28be 775f 553e
000003d0: 68a5 22be fbba 01be f376 e4bd 8a30 43be
000003e0: a2eb a73e da8d 0dbe 87ee 503c a859 713d
000003f0: 0ee3 9bbe d4f3 003e 9c3f 95bd 10dd 643d

fc3.bias f4 [64]
-0.2417777 -0.0014289846 -0.10989807 -0.108939976 -0.0766284 -0.09268357 -0.10576005 -0.084940374
-0.12924923 -0.13132647 -0.109951936 -0.16363189 0.098637976 0.017033614 -0.42919835 0.009852433
-0.33313328 -0.27208176 -0.22670825 0.33537978 -0.19768015 -0.108661816 0.210491 -0.25580662
0.04227614 -0.14621946 -0.17513038 0.013793532 -0.28168583 -0.00016106394 -0.12056624 -0.2639891
-0.056982882 -0.1803739 -0.018342318 -0.07023744 -0.042455908 -0.34198186 -0.12116358 0.009963246
1.177032 0.058681786 -0.14995784 -0.025441146 -0.3971511 -0.17444156 -0.149869 -0.110217616
-0.03338552 -0.14594577 0.32036754 0.15695715 -0.21102054 -0.06956277 -0.31547216 -0.12074953
-0.24871552 -0.22721958 -0.2494528 0.011050627 -0.2669388 -0.27025908 -0.41053206 -0.03969329
00000000: 9394 77be c44c bbba 3d12 e1bd ec1b dfbd
00000010: 5aef 9cbd e2d0 bdbd ba98 d8bd 38f5 adbd
00000020: e959 04be 727a 06be 7b2e e1bd 1e8f 27be
00000030: b502 ca3d 148a 8b3c e3bf dbbe 196c 213c
00000040: 7290 aabe 4d4e 8bbe 3526 68be e6b6 ab3e
00000050: aa6c 4abe 168a debd f48a 573e 16f9 82be
00000060: bf29 2d3d 8eba 15be 6155 33be 44fe 613c
00000070: 2039 90be 46e3 28b9 6feb f6bd 9429 87be
00000080: e266 69bd f0b3 38be a142 96bc a6d8 8fbd
00000090: 3fe6 2dbd 3f18 afbe 9c24 f8bd e23c 233c
000000a0: fca8 963f 505c 703d 8c8e 19be f369 d0bc
000000b0: 6457 cbbe cfa0 32be 4277 19be c6b9 e1bd
000000c0: 41bf 08bd cf72 15be 3707 a43e 60b9 203e
000000d0: c515 58be ed76 8ebd 9185 a1be 884b f7bd
000000e0: 48af 7ebe 40ac 68be 8e70 7fbe b00d 353c
000000f0: 34ac 88be 665f 8abe 4231 d2be 6e95 22bd

fc4.weight f4 [7, 64]
0.110013425 -0.10992932 -0.0245502 0.00055351295 0.13111363 0.10238687 -0.18386704 -0.018493544
-0.1715143 -0.052254125 0.07191185 -0.112332046 -0.13082446 -0.03419872 0.02100997 0.055144098
0.12702811 0.01502039 0.11565103 0.1330596 0.03346239 -0.06926613 -0.023983931 -0.15167804
-0.035153635 0.050478972 0.015099613 0.16222264 0.022415314 -0.050253663 0.003599732 0.14848289
-0.073426284 0.08047466 -0.049958553 -0.058686808 -0.05432787 0.011956922 -0.13488415 -0.0012114656
0.29938728 -0.05258059 0.049349748 0.036076933 0.004832515 -0.0006986553 0.059553307 -0.03323276
0.010441895 -0.12969387 0.08472333 0.09540701 -0.004332817 -0.02571094 0.05047944 -0.025407191
0.026770715 -0.044517096 -0.07338364 0.003712389 -0.14440587 0.05466863 0.0959054 -0.0081889825
-0.02564084 0.010199152 0.12907772 -0.08872812 0.12201402 0.105719924 -0.044283632 -0.08800031
-0.048293795 0.033123523 0.10660931 -0.0011552648 -0.0135155395 -0.010716403 0.012085523 -0.037280895
0.06493025 -0.19514222 -0.0036909147 0.05330884 0.16184019 -0.023788687 0.103146926 -0.008267411
-0.0028306914 -0.032763824 0.067034036 -0.059621487 -0.079245806 -0.1084264 -0.043975104 0.2075178
-0.10591932 0.054664515 0.16589874 -0.048734576 0.054779485 0.12494328 -0.12874968 -0.0025194706
0.3307705 -0.012544902 -0.1011471 -0.082383394 0.14105038 0.24565692 0.043547243 0.00028116532
-0.019403532 -0.11039414 0.08350747 0.031394348 -0.16590337 -0.05592709 0.09488943 0.01909553
-0.050242737 -0.052258916 0.035953302 -0.14923406 -0.12717843 -0.05816759 0.13045815 -0.169107
0.15734142 -0.0812953 0.02735048 -0.008100241 0.07005639 0.06019312 -0.056467004 0.020125406
-0.082404785 -0.060173254 -0.10126901 -0.12197184 -0.041319072 -0.008869704 -0.051667888 -0.08650959
-0.036261074 -0.11956998 -0.03058064 0.10259249 0.13719772 -0.038786914 -0.03505527 0.050732907
-0.032130815 -0.10023689 0.014459085 -0.04372828 -0.07185811 -0.084056966 -0.10885608 0.05355315
-0.021839311 -0.031334862 -0.08973084 -0.10137567 0.015559391 -0.15748632 -0.0014741023 -0.0771423
0.31942907 -0.059875794 0.00068536785 0.11134369 -0.020472094 0.12360829 0.011247364 -0.092431754
-0.12252471 -0.057810843 0.02194679 0.13494126 -0.0003842247 -0.047552854 0.0078674285 -0.026658256
0.008892626 -0.037481416 0.036436975 0.035848875 -0.04979828 0.0056914845 0.07831815 -0.09586899
0.1585016 -0.065191045 -0.17172617 -0.13474901 0.014572591 0.1443846 -0.13225839 -0.08480423
0.05993608 -0.19041254 0.00859613 -0.21932495 0.005338574 -0.0012243295 0.060822196 -0.06846758
0.24290572 -0.051049437 0.04361385 0.15256196 0.0170524 -0.0319702 -0.043996233 -0.03359908
0.003999866 0.048999593 -0.117231585 -0.0051999185 -0.08782217 0.03262198 0.0043891976 0.08944311
-0.19410865 -0.08012322 0.008967969 -0.10462499 -0.17139952 0.118854344 -0.12015236 0.09248572
0.19453083 -0.13320099 0.048879437 0.094212696 0.03919193 0.022068847 -0.09431307 0.015571218
-0.018878479 0.07328595 0.10962672 0.05720849 -0.20510998 -0.16937926 0.061945576 0.020346768
-0.054635543 -0.12763679 0.05634727 -0.027849995 0.0820996 -0.05508367 0.039008383 -0.03795077
00000000: b84e e13d a022 e1bd 801d c9bc a019 113a
00000010: a742 063e 35b0 d13d a447 3cbe c67f 97bc
00000020: 72a1 2fbe 6c08 56bd 8546 933d 580e e6bd
00000030: d9f6 05be f513 0cbd 1a1d ac3c c7de 613d
00000040: a813 023e 1518 763c 72da ec3d c740 083e
00000050: dc0f 093d 67db 8dbd f379 c4bc 7d51 1bbe
00000060: 42fd 0fbd 0ac3 4e3d 5e64 773c b11d 263e
00000070: 52a0 b73c c9d6 4dbd 7be9 6b3b e60b 183e
00000080: 8560 96bd e6cf a43d 57a1 4cbd 9461 70bd
00000090: e786 5ebd f7e6 433c 121f 0abe 0aca 9eba
000000a0: 4a49 993e bf5e 57bd f622 4a3d 68c5 133d
000000b0: 135a 9e3b f725 37ba 2bee 733d 131f 08bd
000000c0: 7b14 2b3c 78ce 04be 6d83 ad3d c064 c33d
000000d0: 4efa 8dbb c09f d2bc 87c3 4e3d be22 d0bc
000000e0: 424e db3c 8f57 36bd 294a 96bd 8d4b 733b
000000f0: 22df 13be 37ec 5f3d 0d6a c43d 152b 06bc
00000100: bd0c d2bc 581a 273c f32c 043e 17b7 b5bd
00000110: 7de2 f93d b083 d83d c162 35bd 8239 b4bd
00000120: b7cf 45bd 88ac 073d fb55 da3d 416c 97ba
00000130: 4870 5dbc da93 2fbc 5c02 463c dab3 18bd
00000140: 27fa 843d 5dd3 47be 46e3 71bb 5f5a 5a3d
00000150: 6fb9 253e 7ee0 c2bc b23e d33d 0974 07bc
00000160: 1f83 39bb 5c33 06bd 2449 893d a935 74bd
00000170: a04b a2bd a90e debd 3d1f 34bd 8c7f 543e
00000180: 3aec d8bd e6e7 5f3d 5ce1 293e e89d 47bd
00000190: 7460 603d 43e2 ff3d f5d6 03be b41d 25bb
000001a0: c05a a93e 2289 4dbc 3626 cfbd a0b8 a8bd
000001b0: 836f 103e 7d8d 7b3e 985e 323d 5f69 9339
000001c0: 28f4 9ebc 5316 e2bd f705 ab3d 5c97 003d
000001d0: 93e2 29be ce13 65bd 6455 c23d 3b6e 9c3c
000001e0: 54cb 4dbd 720d 56bd c543 133d d0d0 18be
000001f0: 103b 02be 2441 6ebd d296 053e 632a 2dbe
00000200: 1c1e 213e 267e a6bd 1d0e e03c e0b6 04bc
00000210: b979 8f3d 108d 763d f249 67bd 09de a43c
00000220: d7c3 a8bd 3b78 76bd 2066 cfbd 5fcc f9bd
00000230: 303e 29bd 3c52 11bc b5a1 53bd f12b b1bd
00000240: 7e86 14bd 1be1 f4bd 4084 fabc 031c d23d
00000250: 8f7d 0c3e 07df 1ebd 1d96 0fbd 4fcd 4f3d
00000260: 9a9b 03bd 0049 cdbd cce5 6c3c 6d1c 33bd
00000270: 582a 93bd 0f26 acbd f0ef debd 8c5a 5b3d
00000280: 5be8 b2bc fc58 00bd cdc4 b7bd 0c9e cfbd
00000290: d1ec 7e3c 1844 21be aa36 c1ba c8fc 9dbd
000002a0: 358c a33e 5240 75bd 42aa 333a 2908 e43d
000002b0: 18b5 a7bc 5826 fd3d dd46 383c dc4c bdbd
000002c0: 3cee fabd 10cb 6cbd c1c9 b33c 0b2e 0a3e
000002d0: c471 c9b9 c8c6 42bd 63e6 003c 6a62 dabc
000002e0: 60b2 113c 1d86 19bd f03e 153d 45d6 123d
000002f0: 48f9 4bbd a27f ba3b 4465 a03d f656 c4bd
00000300: 3e4e 223e e282 85bd fcd8 2fbe a5fb 09be
00000310: e0c1 6e3c 8ed9 133e be6e 07be d7ad adbd
00000320: 897f 753d 81fb 42be c8d6 0c3c b896 60be
00000330: 34ef ae3b ae79 a0ba b220 793d bb38 8cbd
00000340: 47bc 783e 3719 51bd 70a4 323d 3439 1c3e
00000350: 7ab1 8b3c 2ff3 02bd 6535 34bd 309f 09bd
00000360: 4f11 833b ccb3 483d 1d17 f0bd 1464 aabb
00000370: 1cdc b3bd a09e 053d 42d3 8f3b f32d b73d
00000380: 6bc4 46be a517 a4bd 63ee 123c a045 d6bd
00000390: 5b83 2fbe e869 f33d 7112 f6bd 2769 bd3d
000003a0: 1733 473e d765 08be ce35 483d 96f2 c03d
000003b0: b887 203d bac9 b43c 3627 c1bd 6c1e 7f3c
000003c0: 0aa7 9abc f216 963d f983 e03d 7353 6a3d
000003d0: 5a08 52be c271 2dbe a5ba 7d3d 44ae a63c
000003e0: 85c9 5fbd 38b3 02be 65cc 663d ac25 e4bc
000003f0: d623 a83d 6a9f 61bd 41c7 1f3d 4472 1bbd

fc4.bias f4 [7]
0.18107574 0.1376698 0.22287159 0.30304772 0.15925765 0.18802011 0.27198672
00000000: eb6b 393e 50f9 0c3e 7338 643e 1229 9b3e
00000010: 7014 233e 5888 403e d841 8b3e
